Model Weights/model_weights.pth (torch, 36996 bytes, 5 tensors)

fc1.weight f4 [64, 67]
000000 69 71 ab be 14 dd 96 be 39 66 00 bb 20 46 48 3a
       -0.33484963 -0.29465544 -0.001959218 0.0007639844
000010 20 43 a7 bb 39 66 00 bb 20 43 a7 bb 39 66 00 bb
       -0.0051044375 -0.001959218 -0.0051044375 -0.001959218
000020 a8 11 30 3a 22 34 90 39 b5 4f ad 3a 6b a4 38 bb
       0.0006716498 0.00027504662 0.0013222607 -0.0028174173
000030 90 2a 93 3a 13 8b 00 bb 25 e2 3b be de 8e 2a be
       0.0011227895 -0.0019614145 -0.18347986 -0.16656062
000040 55 df 0e 38 8c 19 9a be 1f 32 9f 39 01 93 0b 3a
       3.4063432e-05 -0.30097616 0.00030364186 0.00053243345
000050 69 08 95 be ca 05 93 be 56 34 c7 bd 16 bc 23 bb
       -0.2910798 -0.28715354 -0.09726779 -0.0024983934
000060 94 ce c2 39 45 50 a9 b8 b9 d5 ab ba a8 26 74 ba
       0.00037156476 -8.073499e-05 -0.0013109959 -0.00093136216
000070 cc 9d b9 39 11 c1 d6 ba 05 98 30 ba 45 46 6a ba
       0.00035403518 -0.0016384443 -0.000673652 -0.00089368626
000080 6a f8 aa ba 63 e6 6e 39 f8 b6 ef ba 4b 8e 48 3a
       -0.0013044004 0.00022783274 -0.0018288782 0.0007650598
000090 75 c5 95 3a e9 0b cf 3a 2f 8d 48 ba 3b 69 b9 ba
       0.0011426645 0.0015796396 -0.00076504325 -0.0014145741
0000a0 8e 54 5a bb 55 f0 69 3a 3f f5 d6 3a de 10 a0 b9
       -0.0033314559 0.0008924057 0.0016399993 -0.00030530145
0000b0 a8 99 30 3a f8 b6 ef ba d6 10 a0 39 d2 77 8d bb
       0.0006736764 -0.0018288782 0.00030530122 -0.004317262
0000c0 66 a0 8d ba 4b 4b 48 3a 30 e4 ab ba cf 8d 48 ba
       -0.0010805249 0.0007640614 -0.001311427 -0.00076505257
0000d0 ba 6a 88 3a 39 98 30 ba d2 e2 ab ba bc dc 0e 3b
       0.0010407784 -0.000673655 -0.0013113862 0.0021799048
0000e0 f1 d9 3c bb 17 f8 aa ba be 95 00 3b a7 91 48 3a
       -0.0028816427 -0.0013043907 0.0019620503 0.00076510984
0000f0 db 44 6a 3a ac 9a 8d 3a 3f f5 d6 ba 55 fb ce 3a
       0.0008936652 0.0010803542 -0.0016399993 0.0015791456
000100 a3 13 5c 38 aa e3 ab 3a d6 95 00 3b 21 cf 4b be
       5.2470376e-05 0.0013114114 0.001962056 -0.19903232
000110 89 e8 a4 3a 17 91 48 3a 2b 96 00 3b 02 f6 aa 3a
       0.0012581508 0.00076510146 0.0019620757 0.0013043287
000120 01 8e 48 ba c0 e3 ab 3a 76 45 6a ba 4d 2d 4e bb
       -0.0007650555 0.001311414 -0.0008936742 -0.0031460107
000130 7c 30 30 ba f2 f5 aa 3a 29 96 00 bb 4b 50 c0 ba
       -0.0006721092 0.0013043268 -0.0019620752 -0.0014672367
000140 29 8e 48 ba 28 ce aa ba 53 8f ef 3a eb 52 5a bb
       -0.0007650578 -0.001303141 0.0018276967 -0.0033313583
000150 24 07 99 38 0a db aa ba c4 e5 0e bb 8c 52 90 be
       7.2969386e-05 -0.001303525 -0.0021804431 -0.28187978
000160 b5 0e 58 37 af 76 8f be 64 da 04 3b 38 f5 d6 3a
       1.28780275e-05 -0.28020236 0.0020271773 0.0016399985
000170 6d c5 95 3a 99 f6 aa ba cc 31 00 bb 0f 91 30 ba
       0.0011426635 -0.0013043463 -0.0019560931 -0.00067354826
000180 00 df 32 ba a6 e3 ab ba cb 95 00 3b 45 1d 13 ba
       -0.0006823391 -0.0013114109 0.0019620534 -0.00056119665
000190 ae f8 aa ba 5c e2 ab 3a 41 96 00 bb 67 e6 0e 3b
       -0.0013044083 0.0013113725 -0.0019620808 0.002180481
0001a0 35 99 30 ba d1 26 e2 ba ef 8c f1 b9 7f 8f 48 3a
       -0.0006736697 -0.0017254 -0.00046072106 0.0007650777
0001b0 53 97 30 3a 65 a5 f6 38 5a 50 c0 3a 5f 6b 88 ba
       0.0006736416 0.00011761001 0.0014672384 -0.0010407976
0001c0 d2 77 8d bb 88 f8 aa ba ca e3 ab 3a 52 c2 29 bb
       -0.004317262 -0.0013044039 0.0013114151 -0.0025903177
0001d0 f4 a4 f6 b8 de 95 00 3b 67 95 00 3b a7 99 30 ba
       -0.00011760919 0.0019620578 0.00196203 -0.0006736763
0001e0 77 8f 48 ba 5b 98 30 3a 04 f9 aa 3a 7b 8f 48 3a
       -0.00076507725 0.000673657 0.0013044183 0.0007650775
0001f0 a2 e6 0e bb e9 95 00 bb 73 99 30 3a 76 74 6f b9
       -0.0021804948 -0.0019620603 0.0006736733 -0.00022836201
000200 77 a1 1f ba f8 b6 ef 3a 19 90 48 ba 7b 58 02 3a
       -0.0006089429 0.0018288782 -0.0007650867 0.0004972291
000210 20 80 81 39 bf e3 ab 3a 6e 98 03 be 03 87 59 3b
       0.00024700258 0.0013114138 -0.12851116 0.0033192046
000220 46 e3 ab ba 2f e4 ab 3a 9d e6 0e 3b 2f e4 ab 3a
       -0.0013113997 0.0013114269 0.0021804937 0.0013114269
000230 46 e3 ab ba 00 e6 0e bb 7e 95 00 3b ce 71 1f ba
       -0.0013113997 -0.002180457 0.0019620354 -0.0006082327
000240 39 c0 29 3b 64 a0 8d 3a c4 54 5a bb 26 59 5b ba
       0.0025901927 0.0010805246 -0.0033314684 -0.0008367471
000250 6e 8e 18 3a c2 8c 86 ba b9 7d 21 39 6a a0 8c 37
       0.00058195635 -0.0010265338 0.00015400992 1.6764e-05
000260 3e 5e f1 b9 46 85 48 3a 9c 27 3f be 00 1c b6 b8
       -0.00046037318 0.0007649254 -0.18667454 -8.683652e-05
000270 d3 b5 3f be 12 44 6a ba 15 f6 aa ba 4e 44 6a ba
       -0.18721704 -0.0008936535 -0.0013043309 -0.000893657
000280 1a 11 5c 38 80 6c 90 ba 6c 0f 1e 3b 96 e5 0d 3b
       5.2468014e-05 -0.0011018664 0.002411808 0.0021651736
000290 f3 98 30 3a 06 e4 ab ba 3d 8f 48 ba cc e6 0e 3b
       0.00067366584 -0.0013114221 -0.00076507387 0.0021805046
0002a0 90 b4 21 bb 81 99 30 3a c6 e3 ab ba 2a f8 aa 3a
       -0.0024674274 0.0006736741 -0.0013114146 0.0013043929
0002b0 7e da 04 3b c2 5a 1e 3b cc e6 0e 3b 2f f9 aa ba
       0.0020271833 0.0024162983 0.0021805046 -0.0013044233
0002c0 0d 57 02 ba 14 97 41 39 c5 d2 10 ba c3 95 00 bb
       -0.0004972078 0.00018462195 -0.0005524571 -0.0019620515
0002d0 b5 95 00 3b 64 6b 88 3a 8d d3 10 3a 24 a5 f6 38
       0.0019620482 0.0010407981 0.00055246876 0.00011760954
0002e0 67 4a 03 3a 32 d2 10 3a ed 47 6a ba f1 95 00 3b
       0.000500834 0.00055244856 -0.00089371094 0.0019620622
0002f0 e1 f8 aa ba 03 6a 88 ba 30 24 81 ba 65 a5 f6 38
       -0.0013044142 -0.001040757 -0.0009852704 0.00011761001
000300 06 44 6a ba 41 44 6a ba 75 44 6a ba e4 a4 f6 38
       -0.0008936528 -0.0008936562 -0.00089365925 0.000117609074
000310 44 8e 48 ba 03 9a 30 ba 48 e2 ab ba 5d e6 0e bb
       -0.0007650594 -0.0006736817 -0.0013113702 -0.0021804788
000320 e0 f0 cb ba 00 00 fd bd 12 df 8b 3a b1 b6 ef 3a
       -0.0015559457 -0.123535156 0.0010671339 0.0018288699
000330 ec a1 af ba 51 39 a5 ba b1 b6 ef 3a f2 4f a9 38
       -0.0013399697 -0.0012605583 0.0018288699 8.073439e-05
000340 03 f6 aa ba fa f8 aa ba 7c 0a a0 b9 95 e6 0e bb
       -0.0013043288 -0.0013044172 -0.0003052539 -0.0021804918
000350 58 48 6a 3a 27 7a 43 ba 30 7b 43 ba 1e 86 45 ba
       0.00089371717 -0.0007456862 -0.0007457016 -0.00075349386
000360 7e 7d 2a 3a ea 4c f6 b8 97 a2 7c b8 3e ec d6 ba
       0.0006503685 -0.000117445205 -6.0232906e-05 -0.001639731
000370 13 f4 aa 3a 87 ed 7b bc 1a a1 1d 35 2d d7 81 bc
       0.001304271 -0.015376455 5.872149e-07 -0.015849674
000380 e8 95 00 3b 50 39 a5 3a 2b 90 48 ba 52 96 00 3b
       0.00196206 0.0012605581 -0.0007650877 0.0019620848
000390 28 d4 7a 39 ce e2 1b ba b8 94 59 3a 6a c5 95 3a
       0.00023920892 -0.00059465773 0.0008300054 0.0011426632
0003a0 ef 8f 48 ba ad f7 aa ba 88 f8 aa ba 85 a1 1f ba
       -0.00076508423 -0.0013043784 -0.0013044039 -0.0006089437
0003b0 4c 58 02 ba 30 f9 aa ba 07 99 30 ba 44 50 a9 38
       -0.00049722637 -0.0013044234 -0.000673667 8.0734986e-05
0003c0 80 98 30 ba 55 50 c0 ba 52 98 30 ba 44 50 a9 b8
       -0.00067365915 -0.0014672378 -0.00067365647 -8.0734986e-05
0003d0 fc e2 ab 3a f9 57 02 ba e9 0b cf 3a 32 46 6a ba
       0.0013113911 -0.00049722154 0.0015796396 -0.00089368515
0003e0 3d f5 d6 3a 6e c5 95 ba 1a e6 0e 3b d2 95 00 bb
       0.0016399991 -0.0011426636 0.0021804632 -0.001962055
0003f0 08 98 21 39 98 e6 0e 3b 74 e3 ab ba e6 e6 0e 3b
       0.00015410793 0.0021804925 -0.0013114051 0.0021805107

fc1.bias f4 [64]
000000 c0 4c 30 ba 36 d9 04 bb 24 a5 f6 38 82 e6 0e 3b
       -0.0006725304 -0.002027107 0.00011760954 0.0021804874
000010 3c e6 0e bb 7b a1 1f 3a cc 40 6a ba d9 3e 6a 3a
       -0.002180471 0.0006089431 -0.0008936047 0.00089357566
000020 66 d2 10 3a b9 3a 48 ba 86 e3 ab 3a 58 bd 02 3a
       0.0005524516 -0.0007638145 0.0013114072 0.0004987321
000030 e7 0b cf 3a 11 a5 f6 38 df bc aa b9 cd 8e 48 ba
       0.0015796394 0.0001176094 -0.00032565647 -0.00076506735
000040 17 b2 30 ba 6b 95 00 bb b9 8c 48 ba 8f 95 00 3b
       -0.00067404046 -0.001962031 -0.0007650364 0.0019620394
000050 ce 48 6a ba 4b 44 6a ba 84 38 bb 37 15 8f 48 3a
       -0.00089372403 -0.0008936568 2.2318454e-05 0.00076507154
000060 94 46 6a 3a e3 e5 0e 3b 74 a5 f6 b8 4b ba 9f b9
       0.00089369086 0.0021804504 -0.00011761012 -0.00030465642
000070 02 e6 6e b9 fc 6e ab 3a 1e 1a 10 3a c4 44 6a ba
       -0.00022783133 0.001307934 0.0005497056 -0.00089366385
000080 86 d3 bf ba 3f 93 48 ba de ca 52 ba bb cd c2 b9
       -0.0014635182 -0.0007651336 -0.0008041094 -0.00037155845
000090 95 48 6a 3a d2 55 02 ba 06 52 a9 38 4d 96 0e 3b
       0.0008937207 -0.00049718947 8.073826e-05 0.0021757067
0000a0 3a d4 10 ba d3 8c f1 39 e3 42 6a 3a bf 45 6a 3a
       -0.0005524788 0.00046072024 0.00089363585 0.00089367846
0000b0 c6 10 a0 b9 ce f1 aa ba 4e 44 6a ba 2a db 93 b9
       -0.00030530075 -0.0013042034 -0.000893657 -0.00028201315
0000c0 86 a1 1f ba 66 e2 ab ba 09 91 48 ba 61 f6 aa 3a
       -0.00060894375 -0.0013113737 -0.00076510065 0.0013043397
0000d0 4e 50 c0 ba 9b 8d 48 ba 15 f6 aa ba 19 96 00 bb
       -0.001467237 -0.00076504954 -0.0013043309 -0.0019620715
0000e0 96 10 2b ba 9e 95 00 bb 54 50 c0 ba d4 b4 52 3a
       -0.0006525604 -0.0019620429 -0.0014672377 0.000803781
0000f0 63 1a 3a 3b a3 bd 9f 39 12 96 00 bb cf ee aa 3a
       0.0028397075 0.00030468134 -0.00196207 0.0013041141

fc2.weight f4 [64, 64]
000000 08 e6 9e 3e fb 9a 8a b9 78 c6 69 38 a2 a1 5e ba
       0.31034875 -0.0002643688 5.5736367e-05 -0.0008492713
000010 57 b4 02 ba 51 90 c8 ba d7 5f c0 3a 46 44 6a 3a
       -0.0004985979 -0.0015301799 0.0014677 0.0008936565
000020 ac e0 ab ba f3 a9 2b ba 7d 36 13 ba 0a df e8 b9
       -0.0013113222 -0.0006548457 -0.00056157244 -0.00044416665
000030 f4 fb 2d 39 be db 69 ba 8c b1 ef 3a f0 0f 71 be
       0.00016592426 -0.0008920989 0.0018287166 -0.23541236
000040 eb e6 0e bb 2d ab 2b 3a 45 94 1f 3a 88 8c f1 39
       -0.0021805118 0.00065486395 0.00060874625 0.00046071806
000050 ae e6 0e bb 49 18 04 ba 23 92 09 bd 35 95 00 3b
       -0.0021804976 -0.0005039019 -0.033586632 0.0019620184
000060 c5 df ab 3a 5e b7 95 ba 29 c8 1e 39 1d bb 9c be
       0.0013112953 -0.0011422446 0.0001514262 -0.30611506
000070 f6 1c 1b ba 00 42 9f be 14 96 00 3b 53 0a 27 39
       -0.0005917096 -0.31105042 0.0019620704 0.00015930207
000080 65 a4 98 be 16 d8 ab ba ff 90 48 ba 5c da 04 bb
       -0.29812923 -0.0013110663 -0.00076510006 -0.0020271754
000090 58 0b e1 b7 e8 a9 9f ba 0b b8 d5 ba 5b a8 99 be
       -2.6827372e-05 -0.0012181373 -0.001630546 -0.30011258
0000a0 5c 6c 27 be f2 21 f9 38 a5 37 4b 37 75 e7 3c bb
       -0.1634993 0.00011879568 1.2112699e-05 -0.0028824483
0000b0 e6 34 4e bb f9 0d 8c be c5 92 30 3a a3 55 a1 be
       -0.0031464635 -0.2735441 0.00067357376 -0.31510648
0000c0 58 9f af 3a 5a 2c 3e 3a d6 e4 45 ba 8e a1 1f ba
       0.0013398929 0.00072545337 -0.0007549053 -0.0006089442
0000d0 b8 e0 aa ba 9e 1e ff 39 90 54 5a bb 06 c3 6e 3a
       -0.0013036942 0.00048660202 -0.0033314563 0.000910804
0000e0 d9 9f 8d 3a 49 14 3f bb af a6 d6 3a 49 f9 9d be
       0.0010805085 -0.0029156378 0.001637658 -0.30854252
0000f0 fb 28 91 be ca 86 00 bb 1d 7d 68 ba 97 58 58 3a
       -0.28351578 -0.001961159 -0.0008868741 0.0008252947
000100 38 e5 9f be 09 ce 98 38 b8 f5 aa 3a 9c 20 6a 3a
       -0.31229568 7.286302e-05 0.0013043201 0.0008931251
000110 01 9e 93 be 10 f6 aa 3a b1 38 e0 b9 4c 37 a5 ba
       -0.28831485 0.0013043303 -0.00042766848 -0.0012604981
000120 af 2e 9c be a7 03 9b be ac 0b 5c 38 3f 0c 80 39
       -0.30504367 -0.30276224 5.2462958e-05 0.00024423187
000130 e4 ed aa 3a 4a 78 48 ba e7 97 c7 b9 c7 f7 89 39
       0.0013040868 -0.0007647319 -0.00038069414 0.00026315285
000140 21 44 6a 3a d1 10 a0 39 18 c9 90 ba 48 76 6f b9
       0.00089365436 0.00030530107 -0.0011046259 -0.0002283688
000150 45 e6 3d b8 a3 b1 e8 39 04 f6 aa 3a 86 10 2b 3a
       -4.5275567e-05 0.00044382838 0.0013043289 0.00065255945
000160 c8 50 19 b8 49 42 5a bb ed 9a 30 ba 38 06 a0 be
       -3.6553276e-05 -0.003330367 -0.0006736953 -0.31254745
000170 f0 34 4e bb 46 b5 9e be e5 0b ea ba 4a 50 c0 3a
       -0.0031464659 -0.30997676 -0.0017856328 0.0014672366
000180 15 56 9b be cd 1b 35 be 70 8c f1 39 eb 96 30 3a
       -0.30339113 -0.17686386 0.00046071736 0.0006736356
000190 09 97 30 3a 39 65 cb 3a ae ad 17 3b e3 96 9a be
       0.0006736373 0.0015517838 0.0023144293 -0.30193242
0001a0 0b 97 30 ba 0f 37 5a bb d3 46 8d ba dc 96 30 ba
       -0.00067363743 -0.0033296978 -0.0010778554 -0.0006736347
0001b0 f0 bd 23 3b 4f 3a 0e 3a a9 dd 58 be 8b 3a 22 3b
       0.0024985038 0.0005425559 -0.21178307 0.0024754133
0001c0 c4 95 00 3b f5 8f a3 b8 1c de 32 ba 69 c5 95 ba
       0.0019620517 -7.79926e-05 -0.0006823258 -0.0011426631
0001d0 d7 8c f1 b9 8a f8 aa ba 97 67 9a 3b 4e 75 55 be
       -0.00046072036 -0.0013044041 0.004712056 -0.2084553
0001e0 61 a0 8d 3a e2 10 ee bd 50 b1 04 3b a2 27 02 3a
       0.0010805243 -0.11624314 0.0020247288 0.0004965012
0001f0 b7 f1 a7 b9 6a 20 23 ba 18 23 30 ba 17 39 81 be
       -0.00032032814 -0.00062227866 -0.00067190966 -0.2523887
000200 2d a6 9f be ed 66 5c b8 19 97 30 ba 8a 8a 02 3a
       -0.3118147 -5.2547945e-05 -0.00067363825 0.00049797504
000210 3c c2 11 39 e7 8c f1 39 f5 48 19 be a6 e0 d9 b9
       0.00013900636 0.00046072082 -0.14969237 -0.00041556841
000220 8b cc 87 3a 64 ec 3a bb 2e 1d 1b 3a c3 9d 3b b9
       0.0010360641 -0.0028522247 0.0005917129 -0.0001789248
000230 5a 90 48 ba e2 05 2b 3a 7b 7d 4d 39 63 34 9f 3e
       -0.00076509046 0.0006524009 0.00019597069 0.31094655
000240 6a 21 3b b9 b0 d0 99 3a 9c dd 97 be e0 69 42 ba
       -0.00017846157 0.0011735167 -0.29661262 -0.00074162893
000250 ac 53 02 3a 66 7d 9e b9 a7 69 88 3a 6c 4b 4a ba
       0.00049715745 -0.00030229538 0.0010407463 -0.0007716927
000260 d1 45 46 37 de 94 00 3b d1 30 9a b9 dc 3f 96 be
       1.1817975e-05 0.0019619982 -0.0002940954 -0.29345596
000270 3c 44 6a 3a 97 42 f1 bd 99 dd ab 3a a1 a6 f5 b8
       0.00089365593 -0.11780279 0.0013112306 -0.000117135474
000280 df 70 aa ba cd c0 ee b7 04 3d 00 38 d7 8c f1 39
       -0.0013003609 -2.846159e-05 3.0574403e-05 0.00046072036
000290 42 3a 6a ba 7d 62 28 3b 15 ec 04 3b 29 0b 9e be
       -0.00089350727 0.002569347 0.0020282317 -0.3086789
0002a0 92 bd 39 3a c4 37 42 ba 2b 75 f4 bc 26 b7 ef ba
       0.0007085438 -0.00074088224 -0.029841026 -0.0018288835
0002b0 ae 8b 1f 3a e4 32 91 be 60 df 0e bb 96 48 31 ba
       0.00060861825 -0.2835914 -0.0021800622 -0.00067628303
0002c0 2b f5 d6 3a 2d 25 a8 ba e8 37 3a b8 34 40 cc bb
       0.001639997 -0.0012828462 -4.4397922e-05 -0.0062332395
0002d0 17 30 a4 b8 a9 f8 aa 3a 42 b5 ab 3a a0 1f 82 be
       -7.829087e-05 0.0013044077 0.0013100284 -0.25414753
0002e0 5e a0 8d 3a 33 60 9c 39 1f e7 93 39 44 56 a1 be
       0.001080524 0.00029826313 0.00028210224 -0.31511128
0002f0 04 41 92 be 7c 4b 4a 3a 77 b9 47 ba 16 97 30 3a
       -0.28565228 0.00077169365 -0.0007618884 0.0006736381
000300 40 d2 ab ba 06 33 1e ba a3 2a 1e b7 07 07 aa 3a
       -0.0013108924 -0.0006034825 -9.427461e-06 0.0012972065
000310 9f 54 5a 3b e3 75 8d 3b 77 8d 15 ba 5c 13 ea 3a
       0.0033314598 0.0043170317 -0.0005704979 0.0017858553
000320 11 fe 9a be 84 60 59 bb d5 5f 9d b9 51 b1 00 ba
       -0.30271962 -0.00331691 -0.00030016774 -0.00049092347
000330 82 c6 45 ba b0 66 48 3a 48 a6 0a 38 b7 40 6a 3a
       -0.00075445336 0.0007644696 3.3056625e-05 0.0008936035
000340 1c 44 6a ba 85 a1 1f ba 0f 16 13 3a 7e 7a aa ba
       -0.00089365407 -0.0006089437 0.0005610892 -0.0013006476
000350 6f 1c c4 b8 db 15 ea ba a3 90 a7 39 13 30 95 be
       -9.3513045e-05 -0.0017859297 0.00031960485 -0.2913824
000360 f5 c6 89 ba 01 a9 10 ba cd 1c 60 39 5b 41 9a be
       -0.0010511564 -0.00055183476 0.00021373034 -0.30127987
000370 77 8d 48 3a 91 b8 79 bd e0 50 a9 b8 7c 2e 15 3a
       0.00076504744 -0.060967032 -8.073612e-05 0.00056908256
000380 6f fb 53 39 42 12 c6 39 53 94 00 3b 46 6b 88 3a
       0.00020216194 0.00037779106 0.0019619658 0.0010407947
000390 5c 8c 00 3b fb c8 f6 b9 da a1 cb 3a d5 c2 a0 be
       0.001961491 -0.00047070518 0.0015535906 -0.31398645
0003a0 dd a9 a3 38 b4 1d da 36 f8 22 30 3a 09 a5 05 3b
       7.804085e-05 6.500364e-06 0.0006719078 0.0020392558
0003b0 81 dc 0e 3b 7e 6b 8e be b0 86 00 bb f5 34 96 be
       0.002179891 -0.27816385 -0.001961153 -0.29337278
0003c0 d7 f4 aa 3a 4f 5d 96 b8 77 90 48 ba 57 d9 6e 39
       0.0013042939 -7.1699375e-05 -0.00076509215 0.00022778414
0003d0 39 5e f6 38 b6 e2 a4 ba e2 16 f1 b8 8a 81 ec b8
       0.000117477444 -0.0012579772 -0.00011496038 -0.000112774855
0003e0 0b e2 ab 3a f6 e5 bf b9 ab ca ee bc 3b 49 9f be
       0.0013113631 -0.00036601693 -0.029149374 -0.31110558
0003f0 58 14 93 be 26 ad 2b 3a f0 65 48 ba f5 30 28 3a
       -0.2872646 0.00065489335 -0.00076445844 0.00064159866

fc2.bias f4 [64]
000000 07 bf 39 ba bc ed 29 ba c0 b8 1f 3a eb c9 fe ba
       -0.0007085655 -0.00064822636 0.00060928985 -0.0019438838
000010 e0 15 60 ba 23 27 ea 3a 98 cc bf ba e4 2e f3 38
       -0.00085481815 0.0017864447 -0.0014633117 0.00011595877
000020 10 89 cc ba bb 97 a2 3a 5e fb 4d 3a 8c b8 44 3a
       -0.0015604813 0.0012404838 0.0007857586 0.0007504306
000030 7a 57 86 39 b1 fe 50 3a 4e 05 1b bb a6 c4 11 3a
       0.00025623647 0.0007972522 -0.0023654285 0.0005560614
000040 5e 85 c9 3a 0c 36 c6 ba 43 4d 13 ba 50 8d aa 3a
       0.001537483 -0.0015122308 -0.0005619118 0.0013012085
000050 73 2f 85 3a c4 b3 12 ba ad 51 ad b8 a8 ff 54 ba
       0.0010161236 -0.0005596245 -8.264496e-05 -0.0008125254
000060 bf fd e0 b9 c3 f3 28 3a 6d 58 00 ba d9 3f 18 ba
       -0.00042913665 0.0006445015 -0.0004895989 -0.0005807854
000070 0b 87 39 39 26 69 9d 3a b4 f7 03 bb 95 91 3d ba
       0.00017693282 0.0012009486 -0.0020136656 -0.0007231471
000080 f5 82 be 3a c4 5e 97 ba 75 20 85 3a 4a c8 12 b8
       0.0014534878 -0.0011548628 0.0010156768 -3.4995646e-05
000090 9d 98 09 ba 41 64 94 ba 72 9e a6 ba 54 5d 95 3b
       -0.00052488764 -0.0011321382 -0.0012712015 0.0045582447
0000a0 44 88 af 3a 77 35 50 ba 81 ea 41 ba 2f 44 54 3a
       0.0013392051 -0.0007942537 -0.00073973095 0.00080973184
0000b0 04 c5 f9 b9 8d 90 b2 ba ab 06 ea b9 95 32 0e ba
       -0.0004763977 -0.0013623402 -0.00044636926 -0.00054244074
0000c0 0a 0c 24 ba 57 a6 92 3a 6f 75 9c 3a 36 91 5c ba
       -0.00062578975 0.0011188489 0.0011936853 -0.0008413972
0000d0 b5 77 18 ba f4 4a 1d 3a fd c6 10 bb 5a bf d2 ba
       -0.00058161776 0.00060002436 -0.0022091263 -0.0016078756
0000e0 67 53 e9 3a a1 24 e6 ba b4 df 98 3a 5b d1 4e bb
       0.0017801345 -0.0017558524 0.0011663348 -0.003155789
0000f0 ef a0 02 3b b6 97 e1 39 9b 63 23 3a fa 59 22 3a
       0.001993235 0.00043028378 0.0006232799 0.0006193217

fc3.weight f4 [1, 64]
000000 72 1e 35 3e 34 84 45 3d eb a1 76 3d fb c6 70 3e
       0.17687395 0.04822178 0.06021301 0.23513405
000010 92 3a a8 3d bf e7 dd 3d 81 ec 28 3e 70 f3 3a 3d
       0.082142964 0.10835218 0.16496469 0.045642316
000020 63 22 4d 3b 45 57 89 3e 57 35 63 3e 63 a3 8b 3e
       0.0031301014 0.26824394 0.22188316 0.27273092
000030 13 07 48 3e a6 84 ed 3c 94 6b d0 3c 4d 04 4f 3e
       0.19533949 0.028993916 0.025441922 0.20216484
000040 cd 16 88 bc dd ab 1d 3d 6a 21 5f bd 9e ee 9e 3e
       -0.016612435 0.03849398 -0.054475226 0.31041425
000050 d2 bd 87 3e b3 c8 fe bd df 1b b3 bc 28 4d 81 be
       0.2651201 -0.12440624 -0.021863876 -0.25254178
000060 a2 eb 2a 3e 05 51 6f 3d 5a fd 97 3d 17 ed 4b 3c
       0.1669145 0.058426876 0.0742137 0.012446663
000070 20 d8 fc 3d 7c a1 00 bd 79 02 d1 bc e4 57 41 3b
       0.1234591 -0.031404004 -0.025513874 0.002950185
000080 88 52 e0 bd ac f8 7b 3e 5f f7 60 3e 0f a7 69 be
       -0.109532416 0.2460658 0.21969365 -0.22817634
000090 d0 f6 9a bd cf 41 1c be 71 3c 29 3e e6 ad a9 3d
       -0.07566607 -0.15259479 0.16526963 0.082851216
0000a0 4b eb 0e bc b7 6f 8a 3e c1 50 8a 3e 5b d7 13 bd
       -0.00872309 0.27038357 0.27014735 -0.03609405
0000b0 70 18 22 3b 86 2e 87 3d cd a8 ec bb c9 77 5b bd
       0.0024733804 0.066006705 -0.007222271 -0.053581033
0000c0 f7 9d ad 3d 61 51 04 3d 88 0e 4b 3c 4a 0a 5e 3e
       0.08477395 0.03230417 0.012393601 0.21683612
0000d0 5d ca be 3d 88 b0 88 3b 6b be 3f 3c 4e 58 3d b5
       0.093159415 0.004171435 0.011703114 -7.0536487e-07
0000e0 17 c4 26 3d 07 cc 43 3e 55 cf 34 be ad c2 45 3e
       0.04071435 0.19120799 -0.17657216 0.19312544
0000f0 18 95 3b 3e c7 05 93 3e ec ae 2d 3c 6b 29 36 3e
       0.18318594 0.28715345 0.010600787 0.17789237
