Model Weights/model_weights_multi_new.pth (torch, 56448 bytes, 8 tensors)

fc1.weight f4 [64, 67]
0	0x3d72833f	0.059207197
1	0xb59da235	-1.174462e-06
2	0x3a4890df	0.0007650982
3	0x3a4890df	0.0007650982
4	0x3a4890df	0.0007650982
5	0x3a4890df	0.0007650982
6	0x3a4890df	0.0007650982
7	0x3a4890df	0.0007650982
8	0x3b0f0704	0.002182425
9	0x38c4362a	9.356097e-05
10	0xbabfdde7	-0.0014638276
11	0xbaaaff56	-0.0013046067
12	0xbb0ee186	-0.0021801903
13	0x3a10dc71	0.00055260124
14	0x3945c271	0.00018859819
15	0xb915af4c	-0.0001427505
16	0xb9d7bcac	-0.00041148567
17	0xbd0b478e	-0.034003787
18	0xba2e3044	-0.00066447654
19	0xba98ca5a	-0.0011656985
20	0xbd675c27	-0.056484368
21	0x38ef7fb1	0.000114201925
22	0xbccf8bad	-0.025335157
23	0xba1ba2b2	-0.0005937024
24	0x3ac05d4b	0.0014676241
25	0xba48a6f5	-0.0007654273
26	0x390baf90	0.00013321475
27	0xba3c136e	-0.0007174526
28	0xbb049cfb	-0.002023517
29	0xbb0f17e9	-0.002183432
30	0x3a47a9bf	0.00076165417
31	0x390baf90	0.00013321475
32	0x3a47a9af	0.00076165324
33	0xba4882e6	-0.00076489
34	0x3b0ee779	0.002180545
35	0x3a4882e6	0.00076489
36	0xbb0ea9b6	-0.0021768636
37	0x3b0ea9b8	0.002176864
38	0xbb0ee177	-0.0021801868
39	0xbb9d4033	-0.004798913
40	0xbb0e5878	-0.0021720212
41	0xba4882e6	-0.00076489
42	0x3b0ea9b8	0.002176864
43	0x3a4882e6	0.00076489
44	0xba4882e6	-0.00076489
45	0x3a488694	0.0007649448
46	0xba4882fe	-0.0007648914
47	0xba488312	-0.00076489255
48	0xbad70c69	-0.0016406897
49	0x3b0ea9b6	0.0021768636
50	0x3a488312	0.00076489255
51	0xba4882f6	-0.0007648909
52	0xba488306	-0.00076489185
53	0xbb0ea9b9	-0.0021768643
54	0xba489499	-0.00076515373
55	0xb9218214	-0.00015402614
56	0xba48830e	-0.0007648923
57	0xba490ba3	-0.00076692755
58	0xbb254508	-0.0025218148
59	0xbb0ee776	-0.0021805442
60	0xba5b5666	-0.00083670614
61	0xbb0ea9b6	-0.0021768636
62	0xbb0ee70b	-0.0021805193
63	0xba4882e6	-0.00076489
64	0xbb0ec438	-0.0021784436
65	0x3a4882e6	0.00076489
66	0xba4882ea	-0.0007648902
67	0x3da0931c	0.07840559
68	0x3d1a1f0a	0.037627257
69	0xba3038a1	-0.00067223056
70	0xba3038a1	-0.00067223056
71	0xba3038a1	-0.00067223056
72	0xba3038a1	-0.00067223056
73	0xba3038a1	-0.00067223056
74	0xba3038a1	-0.00067223056
75	0x3a6a7b3b	0.00089447544
76	0xb9b43188	-0.0003436918
77	0xba6a20d5	-0.0008931284
78	0x3acdda40	0.0015705302
79	0xba2cec9e	-0.0006596538
80	0xbaa52491	-0.0012599399
81	0xb8521974	-5.0091607e-05
82	0xb57c0745	-9.3887894e-07
83	0x38a8fe07	8.0581805e-05
84	0x3d82eec7	0.063931994
85	0xbb05f7ab	-0.002044181
86	0x39e097b2	0.0004283763
87	0xbcbbf4e7	-0.022943927
88	0x3bf6cc33	0.0075316667
89	0xbd16a555	-0.036778767
90	0xbb0f466d	-0.0021862045
91	0xbb23dc4e	-0.0025003138
92	0x3a48170f	0.00076328305
93	0x3aa50343	0.0012589473
94	0x395f0062	0.0002126708
95	0xba13452c	-0.00056179124
96	0x3a163350	0.0005729692
97	0xba493363	-0.0007675199
98	0xb90bae10	-0.00013320916
99	0xbb0f174d	-0.0021833957
100	0x3a4882f9	0.0007648911
101	0xba33b4ed	-0.0006855268
102	0x3b0ea9b6	0.0021768636
103	0x3a4882e6	0.00076489
104	0xba4882fe	-0.0007648914
105	0xbb0f1fa4	-0.0021838928
106	0xbaad4b27	-0.001322125
107	0x3a95ef88	0.0011439184
108	0x3b0ea9b6	0.0021768636
109	0x3a488320	0.00076489337
110	0x3b0ea9b7	0.0021768638
111	0xba4882e6	-0.00076489
112	0xba488237	-0.0007648798
113	0xbb0ea9b7	-0.0021768638
114	0xba488324	-0.0007648936
115	0xba12d7e9	-0.0005601631
116	0x3b0ea9b5	0.0021768634
117	0x390baf40	0.00013321359
118	0xba488304	-0.00076489174
119	0xb90e5810	-0.00013574981
120	0xba488315	-0.0007648927
121	0xbaab0233	-0.001304692
122	0xba1fabf4	-0.00060909917
123	0x3a47aa22	0.00076165993
124	0x39a005b7	0.00030521836
125	0xba33b4ed	-0.0006855268
126	0xbb0ee66f	-0.002180483
127	0x3a307a86	0.00067321246
128	0xbb0ea9b6	-0.0021768636
129	0xbaab6d71	-0.0013078881
130	0xbb0ea9b8	-0.002176864
131	0xba10e68c	-0.0005527518
132	0x3a4882e6	0.00076489
133	0x3a488306	0.00076489185
134	0xbf14e4a8	-0.581614
135	0x3af83c1f	0.0018938816
136	0xb90baf64	-0.00013321411
137	0xb90baf64	-0.00013321411
138	0xb90baf64	-0.00013321411
139	0xb90baf64	-0.00013321411
140	0xb90baf64	-0.00013321411
141	0xb90baf64	-0.00013321411
142	0xb90bacea	-0.00013320489
143	0x3a47c4e7	0.00076205883
144	0xba33b8d7	-0.00068558514
145	0x3aac3356	0.0013137858
146	0x3a4893e4	0.0007651432
147	0xbb23b500	-0.002497971
148	0xbe1a4a2a	-0.15067354
149	0x3b4aaa6f	0.003092434
150	0xb912fa24	-0.0001401683
151	0xbf32f324	-0.69902253
152	0x3b00663b	0.0019592184
153	0xba05ff17	-0.0005111559
154	0xbd67bb5d	-0.056575168
155	0xbf0093ef	-0.5022573
156	0x3bb9f429	0.005674858
157	0x3b0ea9b5	0.0021768634
158	0x3b0ee7be	0.002180561
159	0xba33b682	-0.0006855504
160	0xbb1fe51a	-0.002439803
161	0xbcb5480b	-0.02212908
162	0xb831c211	-4.2380827e-05
163	0x38967dbf	7.1759794e-05
164	0x390bad00	0.0001332052
165	0xb90baff0	-0.00013321615
166	0x390baf10	0.00013321289
167	0x3b0ea9b6	0.0021768636
168	0x3ac05d4e	0.0014676244
169	0xba4882e6	-0.00076489
170	0xbb0ea9b6	-0.0021768636
171	0x3a4882e6	0.00076489
172	0xba4882e6	-0.00076489
173	0x3a33b4f9	0.0006855275
174	0x390bac34	0.00013320224
175	0xbb0ea9b6	-0.0021768636
176	0x3a4882e6	0.00076489
177	0x3b0ea9b6	0.0021768636
178	0xbb0ea9b6	-0.0021768636
179	0xba4882e6	-0.00076489
180	0x3b0ea9b6	0.0021768636
181	0x390bafd0	0.00013321568
182	0x3aac2424	0.0013133329
183	0xba4882e6	-0.00076489
184	0x3ac05d4e	0.0014676244
185	0xba4882e6	-0.00076489
186	0x3ac05d4e	0.0014676244
187	0x3b0ea9b6	0.0021768636
188	0xbb0e9c98	-0.0021760818
189	0x3a109b79	0.00055163313
190	0x3b0ea9b6	0.0021768636
191	0x39817fe6	0.0002470009
192	0x390bafd0	0.00013321568
193	0xba488516	-0.0007649226
194	0x3b1e8334	0.002418709
195	0xba4882e6	-0.00076489
196	0x3b1e832f	0.0024187078
197	0x3ac05d4e	0.0014676244
198	0x390bad20	0.00013320567
199	0x3b0ea9b7	0.0021768638
200	0x3ac05d4e	0.0014676244
201	0xbd924e8a	-0.071438864
202	0x360ed2a8	2.1282267e-06
203	0x3a10d7a5	0.00055252976
204	0x3a10d7a5	0.00055252976
205	0x3a10d7a5	0.00055252976
206	0x3a10d7a5	0.00055252976
207	0x3a10d7a5	0.00055252976
208	0x3a10d7a5	0.00055252976
209	0x3a10d8bd	0.00055254606
210	0xba0fb1db	-0.00054815196
211	0x3b0edd08	0.0021799225
212	0xba6a4312	-0.0008936386
213	0x39f18779	0.00046068037
214	0x3a10cd83	0.00055237877
215	0xb8aa9c89	-8.1353886e-05
216	0x39217e56	0.0001540122
217	0x3a779121	0.0009443928
218	0xbd6fbffd	-0.058532704
219	0x3aabbd13	0.0013102613
220	0x3b0d9be4	0.002160781
221	0xbca666f6	-0.020312767
222	0xbd124001	-0.03570557
223	0xbcbb2955	-0.022846857
224	0x3a48833b	0.00076489494
225	0x3a4882e8	0.0007648901
226	0x3b1e8332	0.0024187085
227	0xb85c28c1	-5.2490042e-05
228	0x37db5d56	2.6150297e-05
229	0xb9c79b0a	-0.0003807175
230	0xb9cf5eb9	-0.0003955269
231	0x3b0ea9b2	0.0021768627
232	0x3b0ea9bd	0.0021768652
233	0x3a488302	0.0007648916
234	0x3b0ea9b6	0.0021768636
235	0xbaac29e0	-0.0013135038
236	0x3a4882e6	0.00076489
237	0x3b0ea9b6	0.0021768636
238	0xbb0ea9b6	-0.0021768636
239	0x3ac05d43	0.0014676232
240	0xba493e98	-0.00076768687
241	0xb85c3cdf	-5.2508778e-05
242	0x3b0ea9b6	0.0021768636
243	0x3a4882e6	0.00076489
244	0x3a4882e6	0.00076489
245	0xba4882e6	-0.00076489
246	0x3a4882fc	0.0007648913
247	0xba4882e6	-0.00076489
248	0x3b0ea9b9	0.0021768643
249	0xb8a8de92	-8.052321e-05
250	0x3a4882e6	0.00076489
251	0x3b0ea9b4	0.0021768631
252	0xb90baf3a	-0.0001332135
253	0x3ac05d48	0.0014676237
254	0x3b0ea9b4	0.0021768631
255	0xba33b414	-0.0006855142

fc1.bias f4 [64]
0	0xb9f20569	-0.00046161868
1	0x3ac051a0	0.0014672764
2	0x3a33b36d	0.00068550446
3	0xb85c25f4	-5.2487434e-05
4	0x3a4882e6	0.00076489
5	0xbb0ee988	-0.0021806676
6	0xbb0eb92c	-0.0021777852
7	0x3a33b33b	0.00068550155
8	0x3b0ef288	0.002181204
9	0x385bf4ec	5.244177e-05
10	0x3b0ee752	0.0021805358
11	0x3aac32fe	0.0013137755
12	0x3b0e89a5	0.0021749523
13	0x3b254745	0.0025219482
14	0xb90bd5e2	-0.0001333575
15	0x3b0eec9e	0.0021808515
16	0x3a35f710	0.0006941417
17	0xbb254537	-0.0025218257
18	0x3b0ec794	0.0021786438
19	0xbb0f0439	-0.0021822585
20	0xbb0ee278	-0.0021802466
21	0x3a486744	0.00076447823
22	0xbaa51c89	-0.0012597005
23	0x3aabf1c2	0.0013118314
24	0x3b0ee764	0.00218054
25	0xbb0f28e9	-0.0021844453
26	0xbad71713	-0.0016410075
27	0x3a10d7f8	0.0005525346
28	0xbb1fe36f	-0.0024397036
29	0x3aac24c1	0.0013133512
30	0xb8a8d733	-8.050948e-05
31	0xba399e6e	-0.0007080798
32	0x390bb555	0.00013323624
33	0x390e5683	0.00013574403
34	0xbb0ee436	-0.0021803505
35	0xba4a3dd0	-0.0007714899
36	0xbb0ee0a5	-0.002180138
37	0xb90bae30	-0.00013320963
38	0x3b0ee064	0.0021801228
39	0x3993e9a2	0.00028212095
40	0x3a97c3ae	0.0011578703
41	0x3b0ededf	0.0021800322
42	0x3a33b4b4	0.0006855235
43	0x3b0edf1e	0.0021800469
44	0xba6ee5e9	-0.0009113239
45	0xb911a349	-0.00013889106
46	0xbb0e6f92	-0.0021733982
47	0x396f2e7d	0.00022810134
48	0x399fbc56	0.00030467164
49	0xba33b6f8	-0.00068555726
50	0x3a5b5762	0.0008367208
51	0x3aefb0db	0.001828696
52	0x3a3090d5	0.0006735449
53	0xba489db4	-0.0007652894
54	0x3a30dca5	0.0006746746
55	0xbb1fdf4a	-0.0024394565
56	0xbb0f3e45	-0.0021857184
57	0x3b254515	0.0025218178
58	0xb85c17d6	-5.2474286e-05
59	0x3a8d9158	0.0010800762
60	0xba4a0589	-0.0007706513
61	0x3a33b57a	0.000685535
62	0xba49f8a6	-0.0007704593
63	0x3a021887	0.00049627613

fc2.weight f4 [64, 64]
0	0x3b0ea9b6	0.0021768636
1	0xb874f914	-5.8406105e-05
2	0xbaefa7fe	-0.0018284319
3	0xbb1fe51d	-0.0024398037
4	0xb85c5aad	-5.2536536e-05
5	0xb812e1ab	-3.5019282e-05
6	0x39eb87eb	0.0004492396
7	0x3b25450b	0.0025218155
8	0x3a4a3dad	0.0007714879
9	0xb9f2707d	-0.00046241647
10	0xb90bb729	-0.00013324305
11	0xbb1fe518	-0.0024398025
12	0x390bafd0	0.00013321568
13	0x3b1fce57	0.0024384463
14	0x3a47a9f3	0.0007616572
15	0xba33b58b	-0.000685536
16	0xba19cf5b	-0.0005867385
17	0x3aac24f1	0.0013133568
18	0x396ecde4	0.00022774149
19	0xb86f57a9	-5.706368e-05
20	0xba021986	-0.000496291
21	0x3a02b720	0.0004986394
22	0x38de56ff	0.00010601989
23	0xbcef766c	-0.029231273
24	0x3a33b682	0.0006855504
25	0x38c21273	9.254077e-05
26	0x3859b464	5.1904834e-05
27	0x3904b2ff	0.00012655182
28	0xbaefa6e5	-0.0018283991
29	0x3b008bf6	0.0019614673
30	0xb8a90ba3	-8.0607155e-05
31	0xbaabede4	-0.0013117162
32	0x3a811e76	0.0009850997
33	0xba2ad0e4	-0.00065161125
34	0x387a3694	5.9655475e-05
35	0x3ac04306	0.0014668412
36	0xb90e57cd	-0.00013574884
37	0xbb8a4535	-0.004219676
38	0xb8a8dbf4	-8.051834e-05
39	0xb90b09a8	-0.0001325967
40	0xbb887512	-0.0041643465
41	0x393c4c7d	0.00017957571
42	0xba10c4f1	-0.00055225106
43	0x38cb7fec	9.7036216e-05
44	0x397fb8b5	0.00024387504
45	0x3a4816ed	0.0007632811
46	0x39d52163	0.000406514
47	0x3946b68d	0.00018950757
48	0x3a811e48	0.0009850943
49	0xb99fed93	-0.0003050385
50	0x390bacea	0.00013320489
51	0xbcdd884f	-0.027042536
52	0xbade3a97	-0.0016954717
53	0xb936e69d	-0.00017442783
54	0xbd1fdf5e	-0.03903138
55	0x3ac034fa	0.0014664226
56	0xbab96316	-0.001414391
57	0xb9f16c47	-0.00046047775
58	0xb8dafe92	-0.000104424675
59	0x3b006fba	0.0019597844
60	0x390e63f7	0.00013579415
61	0x390e56a3	0.0001357445
62	0x3b0091c3	0.001961813
63	0x37388604	1.0998458e-05
64	0xbab477ea	-0.0013768647
65	0x3a3e0aaf	0.0007249517
66	0xbe331bd0	-0.17491078
67	0x3a4882ea	0.0007648902
68	0x38a955e9	8.07455e-05
69	0x3b05443f	0.0020334867
70	0xbbb1936b	-0.005419185
71	0xbe30b07c	-0.17254823
72	0x3b0ea9b6	0.0021768636
73	0xbe31f6a5	-0.17379244
74	0xbac05d4e	-0.0014676244
75	0xbac042f1	-0.0014668388
76	0xbe27ffc7	-0.16406165
77	0xbb23b22b	-0.0024978023
78	0xba914272	-0.0011082424
79	0xbac05d4e	-0.0014676244
80	0x3b0ee7a5	0.0021805551
81	0x390bafd0	0.00013321568
82	0xbaabd296	-0.0013109024
83	0xbe32376f	-0.17403959
84	0x3993cd72	0.00028191094
85	0xbac04535	-0.0014669063
86	0xbaea8827	-0.001789336
87	0xbe380449	-0.17970385
88	0x3a6ab361	0.0008953121
89	0xbe31d64d	-0.17366906
90	0x3a08b7f5	0.00052154
91	0xba3d39c4	-0.00072183856
92	0xba811dc7	-0.0009850793
93	0xbaceff8c	-0.0015792712
94	0x3a33b6fc	0.0006855575
95	0x3b008cf6	0.001961527
96	0xbac05d4c	-0.0014676242
97	0xba1f2b93	-0.0006071862
98	0xba281e10	-0.0006413171
99	0xbb00ed7c	-0.0019672802
100	0xb90bacea	-0.00013320489
101	0xbaabd292	-0.001310902
102	0xbe3171fc	-0.17328638
103	0xba83ab71	-0.00100456
104	0xbe3273d6	-0.17427
105	0xb9675a69	-0.00022063557
106	0xbe31c60d	-0.17360707
107	0x3ae0e7be	0.0017158908
108	0x3994a2e8	0.00028350134
109	0xbe0ce9fb	-0.13761131
110	0x361fef1b	2.3832024e-06
111	0xbe2a3996	-0.1662353
112	0xbae402f9	-0.0017395905
113	0xbac93203	-0.0015349988
114	0x3a8c4357	0.0010701221
115	0xb85a8642	-5.2100288e-05
116	0x3a414820	0.0007373113
117	0x3903db2b	0.0001257478
118	0xb87dbbcf	-6.049481e-05
119	0xbb00c28c	-0.001964721
120	0xbe33f7f5	-0.17575057
121	0xba0253a0	-0.00049715675
122	0x3a5ab3ac	0.0008342813
123	0xbe3305fe	-0.17482755
124	0xbe303313	-0.17206983
125	0x3b0ee7aa	0.0021805563
126	0xba1f93aa	-0.00060873723
127	0xb89cef7a	-7.483266e-05
128	0xbb254511	-0.0025218169
129	0x3a40976f	0.0007346784
130	0xbd29fa76	-0.041498624
131	0x3a40972e	0.0007346746
132	0xbb1fe517	-0.0024398023
133	0xb90bb5a7	-0.00013323744
134	0xba409731	-0.0007346748
135	0xbd1312a0	-0.035906434
136	0xbb0efc42	-0.0021817838
137	0x3a40973f	0.0007346756
138	0x390bb769	0.00013324399
139	0x3a48bb90	0.00076573435
140	0xba5f0e36	-0.00085088925
141	0x3b1fe518	0.0024398025
142	0xbaa1ccd5	-0.001234437
143	0x3a33b559	0.0006855331
144	0xba49f896	-0.00077045837
145	0x3a33b676	0.0006855497
146	0x3b1fe51d	0.0024398037
147	0x3a11729d	0.000554839
148	0xbb1fe518	-0.0024398025
149	0x3b1fe51e	0.002439804
150	0x3b254517	0.0025218183
151	0xbd3ae44a	-0.04562787
152	0x3994268d	0.00028257482
153	0x37171618	9.0054455e-06
154	0xba9f906c	-0.0012173778
155	0xba4a3db9	-0.0007714886
156	0xba332ccf	-0.0006834985
157	0x3a332cbf	0.0006834976
158	0x3a3a0c25	0.00070971466
159	0xbb1fe518	-0.0024398025
160	0x390bb80b	0.00013324634
161	0x3b1fe516	0.002439802
162	0x3b0ee7af	0.0021805575
163	0x3661bc09	3.3637064e-06
164	0x390e54fc	0.00013573834
165	0x3788a0d4	1.6287355e-05
166	0x3a5b5697	0.000836709
167	0xb8a90c73	-8.060867e-05
168	0xbd3a4c7d	-0.0454831
169	0x3aaa779c	0.0013005617
170	0xb90bb851	-0.00013324736
171	0xba8c434f	-0.0010701212
172	0x3a4882fe	0.0007648914
173	0xb7fa821f	-2.9862915e-05
174	0xb7abbbbb	-2.0472207e-05
175	0x37bb437e	2.2323566e-05
176	0xbb1fe519	-0.0024398027
177	0x3b1fe51d	0.0024398037
178	0xb90e57fd	-0.00013574953
179	0xbd8637bf	-0.065536015
180	0xbaac12dd	-0.001312818
181	0x3b263e08	0.0025366563
182	0xbd714f7b	-0.05891369
183	0x3b1fe515	0.0024398018
184	0xba332ccb	-0.0006834983
185	0xbccff59c	-0.02538567
186	0xba4882f2	-0.0007648907
187	0xbcd2dc91	-0.02573994
188	0xbb0f3776	-0.0021853126
189	0xbac05d4b	-0.0014676241
190	0x38a90af3	8.0605874e-05
191	0x3a409777	0.0007346789
192	0xbd523212	-0.051317282
193	0xbd4989ce	-0.049203686
194	0xbb9d3edc	-0.004798753
195	0x390e58b8	0.00013575226
196	0xbb1fe51f	-0.0024398041
197	0xbd3db481	-0.04631472
198	0xbd4a13b2	-0.04933519
199	0xb9b85c7a	-0.00035164115
200	0xb90bb83b	-0.00013324704
201	0xba332ccf	-0.0006834985
202	0xb90bb645	-0.00013323974
203	0xba3a0c31	-0.00070971536
204	0x3a409732	0.00073467486
205	0x3a488752	0.0007649559
206	0xbb0ee7b0	-0.0021805577
207	0xbb1fe51d	-0.0024398037
208	0xba4882ea	-0.0007648902
209	0x3b21b2ec	0.0024673296
210	0xba5b575a	-0.00083672034
211	0xbd4c33a4	-0.049853936
212	0xb90e57fd	-0.00013574953
213	0x3a488c28	0.00076502794
214	0xbd2c6ad8	-0.04209408
215	0xbd1f9d38	-0.038968295
216	0x38a8e95f	8.054333e-05
217	0x3a4a7886	0.0007723648
218	0xbd5399de	-0.05166041
219	0xbd4ff207	-0.050767925
220	0xbb1fe518	-0.0024398025
221	0x3b1fe513	0.0024398013
222	0x3a486dd0	0.0007645758
223	0x3b1fe516	0.002439802
224	0xbac05d44	-0.0014676233
225	0x390b9ed1	0.00013315237
226	0xba47e658	-0.00076255715
227	0x3b1fe51e	0.002439804
228	0xba332cc7	-0.00068349804
229	0xbb1fe51f	-0.0024398041
230	0xbcb3c012	-0.021942172
231	0xbd63e787	-0.055640724
232	0xbda37c5e	-0.079827055
233	0x3986d3c0	0.00025716238
234	0xbb1fe516	-0.002439802
235	0xbd4541a7	-0.048158314
236	0x3aac24bf	0.001313351
237	0xbacf067e	-0.0015794782
238	0x38ec3381	0.0001126295
239	0xbd4257ea	-0.047447123
240	0xbab41fd2	-0.0013742393
241	0x3aac24e9	0.0013133559
242	0x3a33b789	0.0006855657
243	0xbd1ac864	-0.037788764
244	0xbd52650c	-0.051365897
245	0xbd5c5802	-0.05379487
246	0xbd1fcb1f	-0.03901207
247	0x3b1fe518	0.0024398025
248	0x3a40971a	0.00073467346
249	0x3b1fe185	0.0024395895
250	0x3a4882ea	0.0007648902
251	0xbe228c87	-0.1587392
252	0x390e56a3	0.0001357445
253	0x3a40972d	0.00073467457
254	0x3b1fe518	0.0024398025
255	0xbcfa445a	-0.03055017

fc2.bias f4 [64]
0	0x3a5b5652	0.000836705
1	0x3b0f378d	0.002185318
2	0xb8f60b36	-0.00011732282
3	0xba10d2fa	-0.0005524602
4	0x3b0f254f	0.0021842306
5	0x3b5a5f12	0.0033320826
6	0xb99fd754	-0.00030487275
7	0x3a2b6cc1	0.0006539338
8	0x3993b2e2	0.00028171303
9	0xba48c2ee	-0.00076584413
10	0x3aab21eb	0.0013056373
11	0x3b0edba0	0.0021798387
12	0x3a33b573	0.0006855346
13	0x3a12eed5	0.0005605047
14	0x3b0edeed	0.0021800355
15	0x382c9e1c	4.1155246e-05
16	0xbaa52cc1	-0.0012601839
17	0xba8de293	-0.0010824971
18	0x3a2b70b3	0.0006539926
19	0x3b0ee7ee	0.0021805721
20	0x3aaa1e4b	0.0012978999
21	0x3a6a3578	0.0008934359
22	0xbb254505	-0.002521814
23	0x3aaf93de	0.0013395508
24	0xbae9e78b	-0.0017845494
25	0x3a2ec55f	0.0006666984
26	0x3aea235f	0.0017863325
27	0x3b0ee17d	0.0021801882
28	0xb90bb7ae	-0.00013324499
29	0xbb0ee2c1	-0.0021802636
30	0x390baaef	0.0001331975
31	0xbaab694e	-0.0013077648
32	0x3a019339	0.00049428974
33	0xbb0ecb66	-0.0021788715
34	0x390bafaa	0.00013321513
35	0x39d9e81e	0.00041562406
36	0x3b0ee1a3	0.002180197
37	0xba6a02e8	-0.00089268247
38	0x3b0edde1	0.002179973
39	0xb96e3f65	-0.00022721065
40	0xba6aa6e6	-0.00089512614
41	0x3a5b50e5	0.0008366241
42	0x3b1fe52f	0.0024398079
43	0x3b0ee997	0.002180671
44	0xb9bee9e6	-0.00036413892
45	0xbaac04e6	-0.0013124018
46	0x3aab93b9	0.001309029
47	0x3a5b56fc	0.00083671487
48	0x3a6f45a5	0.00091275043
49	0xbaaab688	-0.0013024369
50	0x3a30c2f2	0.00067429163
51	0x3a489b91	0.0007652576
52	0xbb0ef0fe	-0.0021811123
53	0xba488a3e	-0.0007649994
54	0x3a2abc40	0.0006513037
55	0x390e54b9	0.00013573737
56	0x3a488b4e	0.00076501525
57	0xba48c015	-0.0007658017
58	0x38fa3b4d	0.000119319746
59	0x3b2544f6	0.0025218106
60	0x3aab013d	0.0013046634
61	0x3a026501	0.0004974157
62	0x3a10eadf	0.00055281626
63	0xba72c0b2	-0.0009260281

fc3.weight f4 [64, 64]
0	0x3a4c21b4	0.00077870046
1	0xbb1fe519	-0.0024398027
2	0x392194a9	0.00015409537
3	0x3b1fe51a	0.002439803
4	0x3aac39a8	0.0013139741
5	0x3a318da7	0.0006773122
6	0xbd260b27	-0.04053798
7	0xbac05d4a	-0.001467624
8	0x391d7c43	0.00015018978
9	0x3a8857de	0.0010402163
10	0xb8b83a99	-8.7847184e-05
11	0xbd779720	-0.06044686
12	0x3b0ee7af	0.0021805575
13	0xbd5aad18	-0.05338773
14	0x387bf657	6.0072485e-05
15	0xb8e5c059	-0.000109553985
16	0xbb0ee78e	-0.0021805498
17	0x3aac24cb	0.0013133524
18	0xbd536c38	-0.051616877
19	0xbaab8ec4	-0.0013088812
20	0xba7c3d6a	-0.00096221885
21	0x3d5c1f02	0.05374051
22	0x3b0ee5a9	0.0021804369
23	0xbd719f32	-0.05898971
24	0xbd94b34e	-0.07260762
25	0xba02540d	-0.0004971631
26	0x3ac05d4f	0.0014676246
27	0x3b1fe519	0.0024398027
28	0x390e57bd	0.0001357486
29	0xbb0ee78d	-0.0021805495
30	0xba2806dc	-0.00064097135
31	0xbd4110fb	-0.047135334
32	0xb8bf05d2	-9.108674e-05
33	0x3a50dec1	0.0007967763
34	0xbb0ee7b4	-0.0021805586
35	0x3b1fe517	0.0024398023
36	0xb92e4773	-0.0001662055
37	0xbd73d6b5	-0.059530932
38	0x3b0ee6f9	0.002180515
39	0xba5df4dd	-0.00084669684
40	0xbd36870c	-0.044562384
41	0xbd50fcfc	-0.051022515
42	0xba10d730	-0.00055252295
43	0xbd04dd6c	-0.032437727
44	0xbd1c63d1	-0.03818113
45	0xbe301e61	-0.17199089
46	0xbd459eb8	-0.04824707
47	0xba4caf11	-0.00078080693
48	0xbc762f49	-0.015025922
49	0x3cdfb876	0.027309638
50	0xb97d54cf	-0.00024159554
51	0xbd26aa54	-0.04068978
52	0xba4745f0	-0.0007601669
53	0xbc79e70d	-0.015252841
54	0x3a3051f9	0.0006726082
55	0xbb1fe518	-0.0024398025
56	0xbca8e425	-0.0206166
57	0xbb0e57e0	-0.0021719858
58	0x3976ff5b	0.00023555516
59	0x3b8888a0	0.0041666776
60	0x3ad66baa	0.0016358991
61	0xbb9843ef	-0.00464677
62	0x390bb8dd	0.0001332494
63	0xbd364fa4	-0.044509545
64	0x390baf00	0.00013321266
65	0xba4a3da9	-0.00077148766
66	0xbd2e82b0	-0.042605102
67	0xbab97606	-0.0014149554
68	0xbaefa506	-0.0018283434
69	0x390e5514	0.0001357387
70	0xba33b705	-0.000685558
71	0x37ee3282	2.839533e-05
72	0xba5b5722	-0.0008367171
73	0x390e5464	0.00013573613
74	0xb730cc9b	-1.0538056e-05
75	0xbd5d4053	-0.054016422
76	0x3aaf9e80	0.0013398677
77	0xba48a629	-0.00076541543
78	0x36b874ef	5.49724e-06
79	0xbb25450b	-0.0025218155
80	0x3a40975e	0.0007346774
81	0x3a33b70a	0.0006855583
82	0x3a02bd35	0.00049873005
83	0x3aa9b6ad	0.0012948118
84	0xb8166db4	-3.5864956e-05
85	0x35f8e8cd	1.8545194e-06
86	0xba2fc28c	-0.000670471
87	0xbd614616	-0.05499848
88	0xbdb227ae	-0.086989745
89	0xbc1ed098	-0.009693287
90	0xbac05d4d	-0.0014676243
91	0xbb2036e7	-0.0024446787
92	0x3aabe0ad	0.0013113223
93	0xbab9632d	-0.0014143937
94	0x3b1f8167	0.0024338604
95	0xb802cdba	-3.1186013e-05
96	0x38665c6d	5.492235e-05
97	0xbb25450c	-0.0025218157
98	0x37ad597f	2.0664882e-05
99	0xb99ecdee	-0.00030289538
100	0xb78a2581	-1.6468346e-05
101	0xbd6e543c	-0.0581858
102	0xb90e565d	-0.00013574348
103	0x3a33b587	0.0006855358
104	0xba811dc7	-0.0009850793
105	0xbd70fc23	-0.058834206
106	0xbe1b9361	-0.1519294
107	0x3a409767	0.00073467795
108	0x39e50b07	0.000436865
109	0x3a84349f	0.0010086483
110	0xb9583bbe	-0.00020621621
111	0x3ac044aa	0.0014668901
112	0xbd5913b3	-0.052997302
113	0xbd58209a	-0.052765466
114	0xbb9736e8	-0.0046146996
115	0x3a6d26e5	0.0009046628
116	0x390bb7f9	0.00013324608
117	0xbd5cb5f2	-0.053884454
118	0xba316c2e	-0.0006768134
119	0x3b0ee7ba	0.00218056
120	0x3aa8b60f	0.001287164
121	0x3b0ee765	0.0021805402
122	0xb942b5c0	-0.00018568989
123	0xbe393371	-0.1808603
124	0xba308456	-0.0006733587
125	0xba4a3d9d	-0.00077148696
126	0xba30c07f	-0.00067425513
127	0xbdbb7874	-0.09153834
128	0x3aa46959	0.0012543603
129	0x3e3151a9	0.17316307
130	0xbd076576	-0.033055745
131	0x3a5b5733	0.00083671807
132	0x3a958030	0.0011406001
133	0x3b1fe51f	0.0024398041
134	0xb9140ef4	-0.0001411995
135	0xbd546979	-0.0518584
136	0xb9f12a12	-0.00045998447
137	0xb90bb85b	-0.00013324751
138	0xb84e3e8c	-4.917248e-05
139	0x38211c5b	3.84118e-05
140	0xbd0ef1ff	-0.034898754
141	0xb98c6449	-0.000267776
142	0x390bb6b5	0.00013324137
143	0xbd29b593	-0.04143293
144	0x3b21b33c	0.0024673482
145	0x3a4745d8	0.0007601655
146	0xb87c13f1	-6.0100054e-05
147	0x3aaaf242	0.0013042169
148	0xbd4702f9	-0.04858682
149	0xba353686	-0.00069127267
150	0x3ad6efd0	0.0016398374
151	0x388243b6	6.211495e-05
152	0xb967fdf6	-0.00022124485
153	0xb7f7c469	-2.9536155e-05
154	0x3a3014c8	0.0006716964
155	0x390bb80b	0.00013324634
156	0x3688ef86	4.081e-06
157	0xbb254514	-0.0025218176
158	0xba6daafb	-0.00090663106
159	0x382cac89	4.116868e-05
160	0xb92b22fe	-0.00016320866
161	0xb9e5ecae	-0.00043854624
162	0xbc170621	-0.00921777
163	0x3b0f3777	0.0021853128
164	0xbd56a421	-0.05240262
165	0xb7a550a9	-1.9707093e-05
166	0x3b0ee700	0.0021805167
167	0x3a6947ed	0.00088989624
168	0xb6438e4b	-2.914009e-06
169	0xbaeeda36	-0.0018222991
170	0xbe1ec6cb	-0.15505521
171	0x3aa098af	0.0012252535
172	0x3972b0de	0.00023144807
173	0xbe352ba5	-0.1769243
174	0xb8a1eb5b	-7.7209166e-05
175	0xba019901	-0.0004943759
176	0xbcbf1ca9	-0.023329096
177	0x387d6287	6.041166e-05
178	0x3947d56d	0.00019057626
179	0xb7ef5ac5	-2.8533288e-05
180	0x3aec4b0e	0.0018027739
181	0x3b1fe51d	0.0024398037
182	0xbb9d3f65	-0.004798817
183	0x38f6199d	0.00011734965
184	0xbcfbf05d	-0.030754263
185	0xb9d7109b	-0.00041020368
186	0x3ac51d47	0.0015038633
187	0xb90bb759	-0.00013324375
188	0xbb1f8201	-0.0024338963
189	0x37326dfd	1.0635235e-05
190	0xbaaf76a0	-0.0013386793
191	0x3aaba93b	0.0013096699
192	0x3a49f896	0.00077045837
193	0x392800fe	0.00016022098
194	0xb9c84c43	-0.00038203792
195	0x3b1fe51f	0.0024398041
196	0xba6a5d18	-0.00089402637
197	0xbaa854ad	-0.0012842618
198	0x3a06aad1	0.0005137148
199	0xb8819873	-6.179595e-05
200	0x36d8f104	6.4653595e-06
201	0x3b1fe51d	0.0024398037
202	0xb73f625c	-1.1407388e-05
203	0xbd6499a0	-0.05581057
204	0x3d76c002	0.060241707
205	0xbd807166	-0.06271629
206	0x3d3e05ea	0.04639236
207	0x3d00dbbe	0.031459562
208	0xb372b525	-5.6509766e-08
209	0xb8f7dc50	-0.00011818914
210	0x39836e44	0.0002506842
211	0xba6a3bdd	-0.0008935312
212	0xbc12d9b0	-0.008963034
213	0x3d8374c8	0.06418759
214	0xbd44e457	-0.048069324
215	0xbd803c18	-0.06261462
216	0xbdc7a8a4	-0.097489625
217	0xba7d6e52	-0.0009667623
218	0x3a332ccb	0.0006834983
219	0x389604b6	7.153435e-05
220	0x3d5d2d6f	0.053998407
221	0xbaef9a9a	-0.0018280328
222	0xbae4d53c	-0.0017458568
223	0xbd5defaa	-0.05418364
224	0xbd06d605	-0.03291895
225	0x3abc7734	0.0014378787
226	0xba5b56b3	-0.0008367106
227	0xb89da21d	-7.516539e-05
228	0x3636b2c0	2.722416e-06
229	0xbd7873a5	-0.060657162
230	0xba5b56a7	-0.0008367099
231	0x3a486dc4	0.0007645751
232	0xbd3e80ab	-0.046509426
233	0xbd69ed88	-0.057111293
234	0xb9f282c5	-0.00046255268
235	0x3aaa5113	0.0012994133
236	0xbd254414	-0.040348127
237	0xba0255d4	-0.0004971896
238	0xbd1a73fc	-0.037708268
239	0x3a01c540	0.0004950352
240	0xbd163503	-0.03667165
241	0x3c629fe5	0.013832067
242	0x3d2202e6	0.039553545
243	0xbd632037	-0.055450644
244	0x390e58a8	0.00013575202
245	0xbca161ac	-0.019699894
246	0x37750b41	1.4605758e-05
247	0xbb0eabea	-0.002176995
248	0x3d152ed9	0.03642163
249	0x3a488ad7	0.0007650083
250	0xb75cf8e7	-1.3170974e-05
251	0xb8b92a2d	-8.829343e-05
252	0xb7a4926b	-1.9618505e-05
253	0x39c8f412	0.0003832882
254	0x3a02481e	0.0004969853
255	0xbccb93a5	-0.024850676

fc3.bias f4 [64]
0	0x3906b8eb	0.00012848123
1	0x39608102	0.00021410364
2	0x3a34c442	0.00068957
3	0x3a7fa765	0.0009752422
4	0xbaa0c4b6	-0.0012265656
5	0xb9b262f1	-0.00034024523
6	0xb995ee2f	-0.00028596955
7	0x3b48bffd	0.0030632012
8	0x3b1a199c	0.00235138
9	0x3ad37863	0.00161339
10	0x3ab72657	0.0013973218
11	0x3a3fc6ca	0.00073156937
12	0x3ab7222a	0.0013971974
13	0xbaa7cf74	-0.0012802915
14	0xba429889	-0.0007423242
15	0x38dcb102	0.00010523388
16	0xb8596a7d	-5.1836007e-05
17	0x3b1133e8	0.0022156183
18	0x39aed6cd	0.00033347905
19	0x3a9764aa	0.0011550386
20	0x3895c928	7.142342e-05
21	0x3adeb97a	0.0016992532
22	0x3a17de43	0.00057933124
23	0x3aa49133	0.001255548
24	0xba03955f	-0.00050195114
25	0x39ac5c62	0.00032875227
26	0x3af989e7	0.001903829
27	0xbac38fca	-0.0014920172
28	0x3a761867	0.00093877915
29	0x3a2646cd	0.00063429476
30	0x39d1f2bd	0.0004004444
31	0x3a9b7d8f	0.0011862981
32	0xbae9e700	-0.0017845333
33	0x3abfebee	0.0014642456
34	0xba3c88f3	-0.0007192038
35	0x39ebe0bf	0.00044990142
36	0xba0f2359	-0.00054602843
37	0x3a939d9c	0.0011262181
38	0x3b1a1514	0.0023511099
39	0x3b0bc024	0.0021324242
40	0x3b629902	0.0034576063
41	0xbb27503d	-0.0025530003
42	0x3a4523e4	0.0007520302
43	0x39a24fcd	0.00030958504
44	0x3ac55724	0.0015055877
45	0x3aef4be1	0.0018256867
46	0x3a7bfd7b	0.00096126617
47	0xba8c7a22	-0.0010717551
48	0x407a5392	3.9113507
49	0x391a8e7a	0.00014739661
50	0x398d3481	0.00026932734
51	0x3a0ae312	0.00052981183
52	0x35ac2fd4	1.2828918e-06
53	0x3ae1feb6	0.0017242047
54	0xba8faff3	-0.0010962471
55	0xbb10d089	-0.0022096953
56	0xba1d7e44	-0.000600789
57	0xbae1c357	-0.0017224354
58	0xb9a391d3	-0.0003119843
59	0x3a6715e9	0.00088152156
60	0xbaec6b94	-0.0018037432
61	0xbac173a6	-0.0014759197
62	0xb9a28af3	-0.00031002573
63	0xbac58a09	-0.0015071045

fc4.weight f4 [9, 64]
0	0x3d6b2d84	0.057416454
1	0x3bdc0e46	0.0067155687
2	0x3d11337b	0.035449486
3	0xbe3a6f57	-0.18206535
4	0x3ca7491c	0.020420603
5	0x3d73dd27	0.05953708
6	0x3dc9b4b7	0.09848922
7	0x3c18eaaf	0.009333297
8	0xbcf7ba19	-0.030240105
9	0x3c80c80e	0.015720394
10	0x3c9e68d7	0.0193371
11	0xbdaf47a3	-0.085585855
12	0x3dc1ce0a	0.09463127
13	0x3d3f0326	0.046633862
14	0xbccdf7c1	-0.025142552
15	0x3aa2855c	0.0012399363
16	0x3d852430	0.06501043
17	0xbd988383	-0.07446959
18	0xba486fd0	-0.0007646056
19	0x3c391e22	0.011298688
20	0x3c4747ff	0.012163161
21	0xbdc1a852	-0.09455933
22	0xbdaf7dbd	-0.085689045
23	0xbdc2780f	-0.094955556
24	0x3eb27c6d	0.34860554
25	0x3d18309c	0.037155733
26	0xbdb76f53	-0.0895678
27	0x3db363ca	0.08759268
28	0xbae396db	-0.0017363684
29	0x3c61ab45	0.013773744
30	0xbe55b94c	-0.20871466
31	0xbe380e45	-0.17974193
32	0xbd9947bd	-0.07484386
33	0x3d60e829	0.054908905
34	0x3d04f3ea	0.032459177
35	0xbbba3c98	-0.005683493
36	0xbca60afd	-0.020268911
37	0xbc598e1d	-0.013278511
38	0xbe302d92	-0.17204884
39	0xbd066eac	-0.03282039
40	0x3bb8f576	0.0056444956
41	0x3d387f84	0.045043483
42	0xbe5318b0	-0.20614886
43	0xbe734984	-0.23758513
44	0x3c17988c	0.009252679
45	0xbbd7daff	-0.0065873857
46	0xbce26e7a	-0.02764057
47	0xbe4566ad	-0.19277449
48	0xbd865c10	-0.06560528
49	0xbd10422b	-0.035219353
50	0xbd28249f	-0.04105055
51	0x3d5122de	0.051058643
52	0x3c158b03	0.009127381
53	0x3d136646	0.035986207
54	0xbc81d31b	-0.015847733
55	0xbe2eecbd	-0.17082496
56	0xbd056260	-0.03256452
57	0x3c74136e	0.0148972105
58	0x3d23d7ad	0.040000606
59	0xbd85c08c	-0.06530866
60	0x3cd84a50	0.026402622
61	0xbdc01229	-0.09378464
62	0x3d036db5	0.032087047
63	0xbd82435a	-0.063605025
64	0xbddfb3a0	-0.109229326
65	0x3dacf94a	0.084459856
66	0xbe456494	-0.19276649
67	0x3e1fdb5c	0.15611023
68	0x3d8d2ef5	0.06893722
69	0xbc22ad6b	-0.009929041
70	0x3c977c96	0.018492024
71	0x3cc2bd55	0.023771921
72	0xbe4c03fd	-0.19923396
73	0xbc435d96	-0.011924168
74	0xbe15a2b2	-0.14612845
75	0xbe13b5b8	-0.14424789
76	0xbe29a810	-0.16568017
77	0x3e1c5e78	0.15270412
78	0xbb75f358	-0.0037529077
79	0x3dd3187e	0.10307406
80	0x3e374cc0	0.17900372
81	0xbbbba42c	-0.005726358
82	0xbd580c50	-0.052746117
83	0x3c9ed84b	0.019390246
84	0xbd1e5ab1	-0.03866071
85	0xbdc236a3	-0.094830774
86	0xbcd404d7	-0.025881214
87	0x3d46a6f2	0.048499055
88	0x3ede1433	0.43374786
89	0x3ce2a81d	0.027668053
90	0x3cc8a29b	0.024491599
91	0xbc8478c5	-0.016170869
92	0x3cee043d	0.029054755
93	0x3caf939f	0.021432696
94	0x3e168500	0.14699173
95	0x3da4a045	0.080383815
96	0x3df243db	0.11829349
97	0xbdd06da8	-0.10177165
98	0xbe4c18b0	-0.19931293
99	0xbe8acc56	-0.2710902
100	0x3d008e11	0.031385485
101	0xbdd05984	-0.10173324
102	0x3d1268d8	0.035744518
103	0xbe61b445	-0.22041424
104	0xbd9734f5	-0.073831476
105	0xbe8d8296	-0.27638692
106	0xbc96b3c6	-0.01839627
107	0x3e48fda5	0.19628008
108	0x3d91ebfa	0.07125087
109	0x3d1cffab	0.03832976
110	0x3d82984a	0.06376703
111	0x3dc3b149	0.09555299
112	0xbd7077ea	-0.05870811
113	0x3cea1c9b	0.028578093
114	0x3dac97d0	0.084273934
115	0xbd35ba60	-0.044367194
116	0xbd662763	-0.056189906
117	0xbe46de43	-0.19420724
118	0xbca1ec68	-0.019766048
119	0x39714e7c	0.00023012789
120	0x3d25859c	0.040410623
121	0xbb6cc9b7	-0.0036130974
122	0xbdd0fbb5	-0.10204259
123	0x3e13ab86	0.144209
124	0xbdb250a4	-0.08706787
125	0xbd9b2cc4	-0.07576898
126	0x3c33a97a	0.010965699
127	0x3ce7aebc	0.028281562
128	0xba9770fb	-0.0011554057
129	0xba94b313	-0.0011344872
130	0xba87a135	-0.0010347726
131	0xba2bba18	-0.00065508625
132	0xbb149afb	-0.0022675383
133	0x38a440e0	7.832213e-05
134	0xbad222fc	-0.0016032155
135	0x374c1717	1.2164724e-05
136	0xbb247c9e	-0.0025098692
137	0xb80ff1c9	-3.4319037e-05
138	0x3a1cfc07	0.0005988483
139	0xb868d628	-5.551256e-05
140	0x39360631	0.00017359179
141	0xba9c46c5	-0.0011922946
142	0x3a8b63bd	0.0010634583
143	0xb9253117	-0.00015753914
144	0xbafd439e	-0.001932252
145	0x3a37a174	0.00070049544
146	0xba95d73e	-0.0011431945
147	0xb9824028	-0.00024843332
148	0xb8fda240	-0.000120942015
149	0xb9b5e0d2	-0.00034690514
150	0x3b1466e4	0.0022644335
151	0x39a4b16c	0.00031412707
152	0x3aa38f61	0.0012478643
153	0xba3f0beb	-0.00072878477
154	0x3a7c1a1a	0.00096169265
155	0xb9a7bbb4	-0.00031992572
156	0xba9b9655	-0.0011870364
157	0xba99127c	-0.0011678482
158	0x3a576ff8	0.0008218284
159	0xba553275	-0.0008132824
160	0xbac395ee	-0.0014922002
161	0xbacf8ef7	-0.0015835454
162	0xbdcfbca5	-0.10143403
163	0x3aea26e2	0.0017864371
164	0x3b15ee49	0.0022877625
165	0xb94f1b36	-0.00019751195
166	0xb8afd24f	-8.383823e-05
167	0xba27013f	-0.000637073
168	0xbda617e3	-0.08110025
169	0xba5361e3	-0.00080635975
170	0xbb2ad875	-0.002606896
171	0x3a26e239	0.0006366107
172	0xbdaa4b68	-0.08315164
173	0xb99241f7	-0.00027896438
174	0x3aa4f1f4	0.0012584315
175	0xbac88867	-0.001529944
176	0xbfaa0ca7	-1.3285111
177	0xba959a60	-0.0011413805
178	0xbaaaf3c3	-0.0013042617
179	0xbacf76d0	-0.0015828256
180	0xb9901d8a	-0.0002748783
181	0x3adb5945	0.0016734978
182	0xbb2b90fa	-0.0026178942
183	0xbb1f6df2	-0.0024327007
184	0x3b2fa8fc	0.0026803603
185	0x3af53d0a	0.0018710208
186	0xba209986	-0.00061263924
187	0x3aa985aa	0.0012933512
188	0xba394543	-0.0007067511
189	0xb8698586	-5.5675882e-05
190	0x3b424de1	0.002964847
191	0xbb144ddf	-0.0022629423
192	0xb97a3b46	-0.00023863939
193	0xb914ac31	-0.00014178526
194	0xb99e5cf2	-0.00030205358
195	0xbc337d84	-0.010955218
196	0xbcb329ec	-0.021870576
197	0x3bb11019	0.0054035303
198	0xbd3fd73a	-0.046836115
199	0xbdae79b7	-0.08519309
200	0x3c41c8ec	0.011827689
201	0xbe5ee9ad	-0.21768828
202	0xbd136b54	-0.035991028
203	0x3dd37451	0.1032492
204	0x3bb8c6a1	0.005638913
205	0xbdaf2954	-0.085528046
206	0x38843ae8	6.3052226e-05
207	0xba6fc4df	-0.00091464625
208	0x38cd93ad	9.8026685e-05
209	0xb8164350	-3.5825477e-05
210	0x3c8242ed	0.015901053
211	0x3d145200	0.036211014
212	0xb82b4ca9	-4.0840972e-05
213	0x38e6f3ac	0.00011012642
214	0x3810a983	3.4490145e-05
215	0xbe47dccf	-0.19517826
216	0x3c8b22e4	0.01698441
217	0x34ba4f96	3.4703106e-07
218	0xb5b792e2	-1.3677311e-06
219	0xbccaa478	-0.024736628
220	0x3905d14b	0.00012761836
221	0xb84b1dbb	-4.842666e-05
222	0xb8165950	-3.5845966e-05
223	0x38048042	3.1590702e-05
224	0xb7878b86	-1.6158225e-05
225	0xbd4559f7	-0.0481815
226	0xbd26c288	-0.040712863
227	0xbd24e503	-0.040257465
228	0xb5d8f08a	-1.616326e-06
229	0x3cc0f2a3	0.023553198
230	0xbc0990be	-0.008396326
231	0xbd2878ec	-0.041130945
232	0xbe080eda	-0.13286915
233	0xb3656a8f	-5.3415132e-08
234	0xb93faba8	-0.00018279126
235	0xbd83e7a9	-0.0644067
236	0x3ca3aa6a	0.01997872
237	0xbd51d48c	-0.05122809
238	0xbd0abb0e	-0.033869796
239	0xb99e1438	-0.00030151173
240	0xbfa15788	-1.2604837
241	0x3ba9450d	0.005165702
242	0xbd0e0f6a	-0.03468267
243	0xbd0dc2e1	-0.03460968
244	0x3c88d7e7	0.016704513
245	0xbdfe629e	-0.124211535
246	0xbcac1758	-0.021007225
247	0x3bc50184	0.0060121436
248	0xb72b8483	-1.0223247e-05
249	0xb76d2601	-1.4135149e-05
250	0x38310d46	4.221245e-05
251	0x37266f07	9.920222e-06
252	0x3c94a8a9	0.01814683
253	0xbd147079	-0.036240075
254	0x36bb5f1f	5.584108e-06
255	0xb8a3e293	-7.8146484e-05

fc4.bias f4 [9]
0	0xbd23d6d4	-0.039999798
1	0xbffdb555	-1.9820963
2	0xbb337e60	-0.0027388558
3	0xba43746f	-0.00074560096
4	0xbe60989c	-0.21933216
5	0xbf364637	-0.7120089
6	0xbb00797c	-0.001960366
7	0x3acbed77	0.0015558441
8	0xbac1fae8	-0.0014799507
