Model Weights/model_weights_multi.pth (torch, 56336 bytes, 8 tensors)

fc1.weight f4 [64, 67]
00000000: 67ba b1b7 fc90 4f3a 3d44 6a3a 3d44 6a3a
00000010: 1c8e 48ba 3d44 6a3a 3d44 6a3a 3d44 6a3a
00000020: 06e4 abba 40e4 abba 05d7 10ba 12b7 ef3a
00000030: 9dad 2b3a bcd9 043b 808f 0e3b 9e75 6e3a
00000040: 55db 1fbb b0f7 8cbe f056 023a bc13 ea3a
00000050: 98e4 0636 df93 5839 7bc4 93bb 26e2 ab3a
00000060: 5790 c83a 326b 88ba 3596 003b 55f4 4d3b
00000070: 5c3d 6aba 4e6a 053b 8695 003b a495 00bb
00000080: f695 00bb 2bb1 edb9 ece3 abba 2bb1 ed39
00000090: a295 00bb e795 00bb a095 003b c4e2 ab3a
000000a0: d414 ea3a a139 bbb7 3c23 1ebb 2a96 00bb
000000b0: c995 003b 6d90 c8ba 9495 003b 3b23 1e3b
000000c0: 22f8 aaba 0f96 00bb d895 003b a0e2 abba
000000d0: af95 00bb 263d bbb7 486b 883a d6bc 23bb
000000e0: c495 00bb a232 053b fa95 00bb 3495 003b
000000f0: 1d96 003b c995 00bb 5999 303a c995 003b
00000100: deca 52ba c995 00bb 3f23 1e3b 62e5 373a
00000110: 831e 423a 3516 ea3a 8ae3 abba 8995 003b
00000120: 8995 003b 8995 003b 3516 ea3a 0ae3 ab3a
00000130: 5486 43ba 706b 883a bef5 d6ba 36ce c2b9
00000140: 583a 9439 c781 51ba 346b b93a f498 48ba
00000150: 7cdc 8cbe 5ccb 103a 7ee2 ab3a dc4a 1138
00000160: bb7c c7b9 c928 0137 f695 003b 9695 00bb
00000170: 8095 00bb f295 003b 04c2 30ba da91 003b
00000180: 3628 2bba 4196 003b a4e3 abba 5295 00bb
00000190: a095 003b 9510 a738 2bb1 edb9 3c23 1e3b
000001a0: c995 00bb 5895 00bb 3823 1ebb 70e3 abba
000001b0: c995 003b c995 00bb 63b1 edb9 c995 003b
000001c0: b195 00bb af95 003b 5a95 003b 743a 9439
000001d0: c995 00bb b795 00bb fc95 00bb 5095 00bb
000001e0: db95 003b 2ee3 abba 2e92 9a3a 8695 003b
000001f0: deca 52ba 5190 c83a 5395 00bb c295 00bb
00000200: 3c23 1e3b d595 00bb a395 00bb 9995 00bb
00000210: b010 a738 4d6b 94ba 2d93 28be 07b3 73b8
00000220: 969a 303a f60e 2b3a 4e39 a53a f60e 2b3a
00000230: 969a 303a 969a 303a dd96 303a 6d31 1b3a
00000240: 2f86 1ebb 4fe6 6eb9 dcf5 aaba 5350 c03a
00000250: 7376 603a 2edc d5b7 a72e 0bbb 8eeb ddbd
00000260: 23e7 69ba 430f 1bba f20a 4538 aa2f 0bb9
00000270: 7ed6 67b7 a0e2 abba 7395 003b 0b96 003b
00000280: ee39 833a c389 f139 c169 883a 4098 30ba
00000290: aba8 61b9 396b 883a ab95 00bb 5011 a7b8
000002a0: 5995 00bb c995 003b e195 00bb f095 003b
000002b0: fc95 003b 7f48 6a3a 94a5 f638 b010 a7b8
000002c0: 6095 00bb c995 00bb 2ce4 abba b510 a738
000002d0: 716b 883a f895 00bb 88e2 ab3a a139 bbb7
000002e0: 7010 a738 cc95 00bb aa95 003b 3de3 ab3a
000002f0: 2544 6a3a 3e71 6fb9 fe95 003b 2f95 003b
00000300: 70e2 abba e4e3 ab3a e0f8 aaba 3c23 1e3b
00000310: 1b1f c53a c795 003b 3896 003b 3a23 1ebb
00000320: 13e3 ab3a c537 d6bd af74 5db8 be48 6aba
00000330: e095 003b e095 003b 42e4 ab3a e095 003b
00000340: 42e4 ab3a cf95 003b 2cbc eeba a87a 433a
00000350: fb96 30ba e315 ea3a e4be 023a 80e4 2f3a
00000360: 77e2 47ba c79b a5ba 081b 74bd 3440 1fba
00000370: 1279 303a 3c7f a0be a17f efbd e79a a0be
00000380: 6895 00bb 24e3 abba 72e2 abba 3895 00bb
00000390: 4f99 45ba 8d1f aa3a f0b1 a23a 3e92 9a3a
000003a0: 3723 1ebb ce55 313a 3e95 00bb 5895 00bb
000003b0: 2bb1 ed39 63b1 ed39 b010 a7b8 f595 003b
000003c0: f6e1 ab3a 4944 6a3a b010 a7b8 2138 bb37
000003d0: 3c23 1ebb c995 00bb 0439 bbb7 bf95 003b
000003e0: 26e2 abba 538f 48ba 7395 003b 4d96 003b
000003f0: 9510 a7b8 ca95 00bb 7010 a738 15d9 043b
-2.1186845e-05 0.00079180277 0.000893656 0.000893656 -0.00076505705 0.000893656 0.000893656 0.000893656
-0.0013114221 -0.0013114288 -0.00055252045 0.0018288812 0.0006549003 0.0020271381 0.0021753013 0.0009096506
-0.0024392207 -0.2753272 0.0004972061 0.0017858665 2.0100615e-06 0.00020654452 -0.0045095063 0.0013113662
0.0015301806 -0.0010407923 0.001962078 0.003142615 -0.0008935535 0.0020357552 0.0019620373 -0.0019620443
-0.0019620634 -0.00045336163 -0.0013114191 0.00045336163 -0.0019620438 -0.0019620599 0.0019620433 0.0013113846
0.001785899 -2.2318973e-05 -0.0024129888 -0.0019620755 0.001962053 -0.0015301831 0.0019620406 0.0024129886
-0.001304392 -0.0019620692 0.0019620564 -0.0013113804 -0.0019620468 -2.2320612e-05 0.0010407949 -0.002498438
-0.0019620517 0.002032437 -0.0019620643 0.0019620182 0.0019620724 -0.001962053 0.0006736718 0.001962053
-0.0008041094 -0.001962053 0.0024129895 0.00070150767 0.00074050593 0.0017859401 -0.0013114077 0.001962038
0.001962038 0.001962038 0.0017859401 0.0013113928 -0.0007458676 0.0010407995 -0.0016400141 -0.00037156203
0.0002827223 -0.00079920556 0.0014146329 -0.00076521863 -0.27511966 0.0005523467 0.0013113765 3.4640412e-05
-0.0003804917 7.698495e-06 0.0019620634 -0.001962041 -0.001962036 0.0019620624 -0.0006742778 0.0019618184
-0.0006529124 0.0019620808 -0.0013114107 -0.0019620252 0.0019620433 7.966269e-05 -0.00045336163 0.0024129888
-0.001962053 -0.0019620266 -0.0024129879 -0.0013114046 0.001962053 -0.001962053 -0.00045336326 0.001962053
-0.0019620473 0.0019620468 0.001962027 0.0002827231 -0.001962053 -0.0019620487 -0.0019620648 -0.0019620247
0.001962057 -0.001311397 0.0011792833 0.0019620373 -0.0008041094 0.0015301799 -0.0019620254 -0.0019620513
0.0024129888 -0.0019620557 -0.001962044 -0.0019620417 7.966289e-05 -0.0011323482 -0.16462393 -5.8102447e-05
0.0006736902 0.00065253617 0.0012605579 0.00065253617 0.0006736902 0.0006736902 0.00067363476 0.0005920146
-0.0024188866 -0.00022783245 -0.0013043243 0.0014672376 0.0008562572 -2.5494108e-05 -0.0021237524 -0.10835944
-0.00089226867 -0.0005915055 4.6978654e-05 -0.00013273829 -1.3818613e-05 -0.0013113804 0.0019620329 0.0019620683
0.0010011771 0.00046069743 0.0010407494 -0.0006736554 -0.00021520506 0.0010407931 -0.001962046 -7.966405e-05
-0.0019620268 0.001962053 -0.0019620585 0.001962062 0.0019620648 0.00089371944 0.000117610354 -7.966289e-05
-0.0019620284 -0.001962053 -0.0013114265 7.9662925e-05 0.0010407997 -0.0019620638 0.0013113776 -2.2318973e-05
7.966242e-05 -0.0019620536 0.0019620457 0.0013113987 0.0008936546 -0.00022835002 0.0019620652 0.001962017
-0.0013113748 0.0013114181 -0.0013044141 0.0024129888 0.0015039177 0.0019620524 0.0019620787 -0.0024129883
0.0013113938 -0.10459856 -5.2799176e-05 -0.0008937231 0.0019620582 0.0019620582 0.0013114291 0.0019620582
0.0013114291 0.0019620543 -0.0018214039 0.0007456937 -0.0006736365 0.0017859306 0.00049875514 0.00067097694
-0.00076249935 -0.0012634926 -0.05959609 -0.00060749357 0.0006731908 -0.31347072 -0.11694265 -0.3136818
-0.0019620303 -0.0013113958 -0.0013113751 -0.0019620191 -0.00075377984 0.0012979374 0.0012412649 0.0011792851
-0.0024129876 0.00067648 -0.0019620205 -0.0019620266 0.00045336163 0.00045336326 -7.966289e-05 0.0019620631
0.0013113606 0.0008936567 -7.966289e-05 2.2318274e-05 -0.0024129888 -0.001962053 -2.2318687e-05 0.0019620506
-0.0013113662 -0.00076507515 0.0019620329 0.0019620836 -7.966269e-05 -0.0019620531 7.966242e-05 0.0020270993

fc1.bias f4 [64]
00000000: 5bf8 aaba 7c3a 9439 be77 8d3b 6b90 48ba
00000010: 1b49 6a3a 7f95 00bb 9599 303a c845 6aba
00000020: 76a1 1fba 1024 81ba 70a0 8d3a 3ef7 aaba
00000030: 0948 6aba 09f6 aaba deca 52ba 56e3 ab3a
00000040: b6e6 0ebb bf68 b9ba 11a2 af3a c395 003b
00000050: df95 00bb 9995 00bb 6681 81b9 68c5 953a
00000060: 679a 303a 2e96 003b e110 a039 e744 6a3a
00000070: 3b1c c53a 5e6b 883a 0b97 303a bc97 41b9
00000080: a4e3 ab3a bb97 303a a795 003b 2abf 023a
00000090: 4544 6a3a fa8c f1b9 2cf5 d63a d455 023a
000000a0: a395 003b 8444 6a3a e69a 303a 3823 1ebb
000000b0: 5550 c0ba e895 003b ace6 0ebb dc10 a0b9
000000c0: f5dc 23bb 8bf8 aaba d3e5 0e3b d2e2 abba
000000d0: 3d76 6f39 98f7 aaba ff99 303a 9255 0eb9
000000e0: 0596 00bb 7fac 2b3a 4e24 81ba 4c39 a53a
000000f0: 4e39 a53a e0e2 ab3a 4ae6 0ebb 5550 c03a
-0.0013043986 0.00028272334 0.004317253 -0.00076509145 0.0008937285 -0.0019620357 0.00067367527 -0.000893679
-0.0006089428 -0.0009852666 0.001080526 -0.0013043655 -0.00089371257 -0.0013043295 -0.0008041094 0.0013114016
-0.0021804995 -0.0014145597 0.001339974 0.0019620515 -0.001962058 -0.0019620417 -0.00024701207 0.001142663
0.0006736875 0.0019620764 0.00030530154 0.0008936659 0.001503832 0.0010407974 0.00067363743 -0.0001846244
0.0013114107 0.0006736477 0.001962045 0.0004987592 0.00089365646 -0.00046072138 0.0016399971 0.0004971896
0.001962044 0.0008936601 0.0006736949 -0.0024129879 -0.0014672378 0.00196206 -0.0021804972 -0.0003053014
-0.0025003527 -0.0013044042 0.0021804466 -0.0013113862 0.00022836863 -0.0013043759 0.00067368144 -0.00013574053
-0.0019620669 0.0006548836 -0.0009852739 0.0012605577 0.0012605579 0.0013113879 -0.0021804743 0.0014672378

fc2.weight f4 [64, 64]
00000000: 333b 0dbb 0fe6 6eb9 5ad7 abb9 4ae8 4739
00000010: c5f2 9a3a f60a 133a 6495 00bb 24ea 9ebe
00000020: e796 303a d4d5 f739 7284 99be e1eb 2339
00000030: 774d 2837 4c70 95be 1d91 48ba 41a1 96be
00000040: 8297 38ba 04f6 aaba 04f4 ec3a 7690 25ba
00000050: 23d8 3d3a 19c2 36ba de03 70be 6bcd a2ba
00000060: bcff 253a 13aa e9b8 5950 c0ba beea 94be
00000070: f721 9dbe ab32 a53a 7b55 8938 1a17 9739
00000080: d650 98be 536b 883a 6fc3 b0ba 424d 243a
00000090: 166f a4b9 f097 a9ba 65a0 8d3a 39e1 9bbe
000000a0: 5abf 3f3b 69c5 95ba 29e6 0ebb 8c48 c03a
000000b0: b4da 92b8 4f39 d938 c96b 2bb7 f910 a0b9
000000c0: ea35 9cba d78e 48ba 6443 a839 dd50 14b8
000000d0: c610 a039 1cd3 103a 2f80 ca36 e24f a9b8
000000e0: 2a2b 6a3a a868 b93a 858f 483a 5596 003b
000000f0: 6bcd 98be b38d 483a 9f57 023a 4a96 47b9
00000100: 2fc8 2cbe a34d 71be 177d 72be 4639 a53a
00000110: 3747 90be ab1d 13ba c995 00bb 9a97 9dbe
00000120: 05c3 61be ef95 003b 00fd a7b7 1f76 8cbd
00000130: a0a3 233b 8b10 2bba 8556 02ba 79a1 1f3a
00000140: 6781 933a 1ed9 c73a d88d 8339 b12c 813a
00000150: 7dd2 10ba 1c4a a8b7 7cfd 7cbe 4ea0 1f3a
00000160: 2305 6a3a 9ed3 10ba 9534 8abe 5e41 86be
00000170: c38c f139 c461 b9ba 6c8d 483a ba67 b9ba
00000180: 0d8f 00bb e0e3 76be 4644 6aba 1449 c0ba
00000190: 94a3 afba 0d0d 5cb8 9610 34b8 f396 30ba
000001a0: 2ae6 0ebb f6f5 aaba 8dda 043b 1fd0 84be
000001b0: 6591 48ba ca51 71be 5fb2 7fb8 81a1 1f3a
000001c0: b9e4 3cbb ed34 4ebb a5da 203a c453 8a3b
000001d0: d1e7 3cbb 0369 b9ba 4639 a5ba 6b5d 71be
000001e0: 9357 023a 8fd3 10ba 1644 6aba b968 83be
000001f0: f3a3 88be 8dd7 2238 6b1e c03a 52a2 1bba
00000200: 04cb d0b7 44a5 f638 f38c f1b9 c193 2b38
00000210: 7d0e 2e3a e86c d63a ca55 313a 12fc c5bd
00000220: 5ce6 0e3b 75a1 1f3a 0f4a 3238 73d8 46b7
00000230: eb66 8aba 3d44 6aba 2191 eb38 2cc1 8fb7
00000240: af8e 483a 369d b7b8 b1ab 2bba e7f1 6eb9
00000250: 09c6 88b8 7f7c 07b9 7ee3 ab3a 8112 1138
00000260: d595 003b ee34 4ebb eb8f 303a 2ab2 21bb
00000270: 841b acb9 1472 6f39 2481 ebb8 e295 2438
00000280: b4e6 0ebb 2d44 6a3a dde5 1fbb dd96 30ba
00000290: 5039 a53a 87a4 a6b7 28be 02ba 28e4 ab3a
000002a0: a8b3 4738 1644 6aba e934 4ebb 1590 483a
000002b0: 03f6 aaba 8c54 5a3b d750 0db8 4000 bfb6
000002c0: 010a 3a38 8135 0238 e38c f1b9 0597 303a
000002d0: 9b22 813a a667 b93a 6f14 ea3a 5350 c0ba
000002e0: 82e3 abba e690 af38 7fc2 bd37 12f6 aa3a
000002f0: 278f 483a e796 30ba f7cf f8b6 f018 fd38
00000300: c2ff 9c3b 791d 133a 3024 81ba d90f 2bba
00000310: d8e5 0e3b 4c50 c0ba a2e2 ab3a 5f90 a0be
00000320: dee5 0e3b a591 48ba db8c f1b9 29e8 3cbb
00000330: 61ad 393b f409 cfba 03f6 aa3a 69a0 8dba
00000340: fbd5 10ba a7a3 23bb 7780 12b7 7f8e 483a
00000350: 2ab2 21bb 3f44 6aba ca6a 96be fc8f 483a
00000360: 26e6 1fbb ba45 6aba 8c54 5a3b dfe7 57bd
00000370: ca55 31ba 2df5 d6ba d6ac 2bba d117 94be
00000380: 1444 6a3a 87a1 1fba 9fe6 0ebb 06f6 aaba
00000390: 85be 023a 9010 2bba e2f6 0fbe ce3e 9d3b
000003a0: 8de2 abba 0b97 303a 6c97 303a 8023 23be
000003b0: fb91 7abe 8477 dcbd e77a 433a 5c7c abba
000003c0: 48cc 01ba 17d3 a4ba 327c 23bb ced9 f5b8
000003d0: ec57 023a d751 8a3b 0e97 303a 2a1e 10ba
000003e0: e61c 1bba 578d 483a 5b26 10ba 498d 483a
000003f0: 9054 5a3b 4ce2 ab3a 4950 c0ba 2246 6aba
-0.0021550178 -0.00022783152 -0.0003277611 0.00019064653 0.0011821619 0.0005609238 -0.0019620294 -0.3103801
0.00067363534 0.00047270826 -0.2998386 0.00015632763 1.00316165e-05 -0.29187238 -0.0007651018 -0.29419902
-0.00070416194 -0.0013043289 0.0018078093 -0.0006315777 0.0007241985 -0.0006971672 -0.23438975 -0.0012420838
0.0006332358 -0.000111419846 -0.0014672383 -0.29085344 -0.30689976 0.0012603601 6.548591e-05 0.00028818176
-0.29749173 0.0010407962 -0.0013485978 0.0006267616 -0.00031363283 -0.0012938958 0.0010805248 -0.3044527
0.0029258342 -0.0011426631 -0.0021804667 0.0014670058 -7.002559e-05 0.00010358041 -1.021749e-05 -0.00030530224
-0.0011917923 -0.00076506793 0.00032093667 -3.536126e-05 0.00030530075 0.0005524622 6.0349917e-06 -8.073427e-05
0.00089328235 0.001414557 0.00076507806 0.0019620855 -0.2984422 0.00076505094 0.0004972163 -0.00019034106
-0.16873239 -0.23564772 -0.2368053 0.001260557 -0.28179333 -0.0005612026 -0.001962053 -0.30779725
-0.2204705 0.0019620617 -2.0025764e-05 -0.06858467 0.0024969354 -0.00065255974 -0.0004971999 0.000608943
0.0011253775 0.0015247201 0.0002509195 0.0009855238 -0.0005524529 -2.006167e-05 -0.24706072 0.0006089256
0.0008927157 -0.00055246975 -0.26993242 -0.26221746 0.00046071978 -0.0014143516 0.0007650468 -0.0014145293
-0.0019616515 -0.24110365 -0.0008936565 -0.0014670216 -0.001340019 -5.2464242e-05 -4.293079e-05 -0.00067363604
-0.002180467 -0.0013043273 0.0020271868 -0.25940034 -0.000765106 -0.23566356 -6.096286e-05 0.00060894346
-0.0028822853 -0.0031464652 0.0006136096 0.0042214114 -0.0028824697 -0.0014145676 -0.001260557 -0.23570792
0.0004972156 -0.0005524689 -0.0008936537 -0.25665835 -0.26687583 3.8824557e-05 0.0014657503 -0.00059369684
-2.4890069e-05 0.00011760977 -0.00046072117 4.0907184e-05 0.0006639732 0.0016359361 0.0006764798 -0.09667219
0.0021804785 0.00060894276 4.250748e-05 -1.1852116e-05 -0.0010559236 -0.000893656 0.000112327056 -1.7136881e-05
0.0007650656 -8.755403e-05 -0.00065487163 -0.00022787564 -6.521872e-05 -0.00012920982 0.0013114063 3.4587927e-05
0.0019620557 -0.0031464654 0.00067353126 -0.0024672844 -0.00032826897 0.00022835314 -0.000112297275 3.9240236e-05
-0.002180499 0.00089365506 -0.0024398484 -0.00067363476 0.0012605581 -1.9865356e-05 -0.0004987442 0.001311426
4.7612615e-05 -0.0008936537 -0.0031464642 0.00076508644 -0.0013043288 0.0033314554 -3.3692308e-05 -5.6922727e-06
4.4355173e-05 3.1044245e-05 -0.0004607207 0.0006736371 0.0009852232 0.001414527 0.0017858873 -0.0014672376
-0.0013114067 8.37164e-05 2.2621125e-05 0.0013043305 0.0007650726 -0.00067363534 -7.4151862e-06 0.00012068625
0.004791231 0.0005611997 -0.0009852704 -0.0006525494 0.0021804478 -0.0014672368 0.0013113806 -0.31360146
0.0021804492 -0.0007651097 -0.00046072048 -0.0028824902 0.0028332102 -0.0015795813 0.0013043288 -0.0010805252
-0.00055250496 -0.002496937 -8.732189e-06 0.0007650628 -0.0024672844 -0.0008936561 -0.2937835 0.000765085
-0.0024398654 -0.00089367817 0.0033314554 -0.052711364 -0.0006764798 -0.0016399972 -0.0006548887 -0.2892442
0.0008936536 -0.0006089438 -0.0021804941 -0.0013043291 0.0004987496 -0.00065256003 -0.14059022 0.0047987467
-0.0013113782 0.00067363743 0.0006736431 -0.15931511 -0.2446975 -0.10764983 0.00074569735 -0.0013083327
-0.00049514 -0.0012575117 -0.0024945852 -0.0001172308 0.0004972208 0.004221182 0.0006736376 -0.0005497659
-0.0005917087 0.0007650456 -0.00054988795 0.00076504477 0.0033314563 0.0013113706 -0.0014672364 -0.0008936842

fc2.bias f4 [64]
00000000: d197 30ba 34d5 10ba 0c97 30ba b3a6 11b9
00000010: 4423 81ba 7197 30ba 7ef4 bc3a 0597 303a
00000020: 64f6 aaba 7047 6a3a 29c4 6eba 058f 483a
00000030: e60f 2b3a c995 293b c8e3 ab3a 7057 02ba
00000040: cb48 6a3a e496 30ba 23e6 6eb9 80d4 10ba
00000050: 4e39 a53a 4b96 003b d38c f1b9 7df7 aaba
00000060: e779 433a 08e3 ab3a b358 023a e30e 5c38
00000070: 7aa3 afba 0cf6 aaba 5a95 003b d78c f139
00000080: b9d4 10ba e668 703a 5339 a5ba ece5 0e3b
00000090: 83e6 0e3b ce55 31ba e13f 6a3a b296 403a
000000a0: 32f8 8939 4ca3 6aba ede5 0ebb b88b 303a
000000b0: d1f7 aaba 65d4 103a 6a46 6a3a 3ba5 f6b8
000000c0: 5550 c03a 54f6 aaba fad4 103a c798 303a
000000d0: 9c98 303a 16f6 aaba 9309 5c38 c045 6a3a
000000e0: bee6 0e3b 4ed5 103a 9795 003b d695 00bb
000000f0: 4751 02ba 058e 1e3a 8210 2bba c997 30ba
-0.00067364896 -0.0005524934 -0.0006736375 -0.00013890378 -0.0009852429 -0.0006736434 0.0014416126 0.0006736371
-0.0013043401 0.00089370366 -0.00091082096 0.0007650706 0.00065255014 0.0025876632 0.0013114149 -0.00049721356
0.00089372386 -0.00067363516 -0.00022783181 -0.0005524829 0.0012605579 0.0019620832 -0.00046072024 -0.0013043728
0.00074568245 0.0013113925 0.00049723237 5.246595e-05 -0.001340016 -0.0013043298 0.001962027 0.00046072036
-0.0005524862 0.00091709045 -0.0012605585 0.0021804525 0.0021804876 -0.00067648 0.00089359103 0.0007346674
0.00026315596 -0.0008950725 -0.0021804527 0.0006734687 -0.0013043826 0.00055248133 0.0008936884 -0.00011760971
0.0014672378 -0.0013043382 0.00055249 0.0006736633 0.0006736608 -0.001304331 5.2461004e-05 0.0008936785
0.0021805014 0.0005524949 0.0019620412 -0.001962056 -0.0004971218 0.0006048384 -0.0006525592 -0.0006736485

fc3.weight f4 [64, 64]
00000000: d877 5f3a f6d4 6ab8 55f2 953d f9f5 aa3a
00000010: adfd 2b3a 67c5 95ba 4d45 6a3a bf41 8bb7
00000020: fe33 92be 5142 69b7 5932 48ba 8236 a53a
00000030: e375 8d3b 926a b8b9 5d52 0d38 0ff6 aaba
00000040: 5ea0 8dba 1813 eaba d446 803b e42f 483a
00000050: 3067 3937 c02b 0d3a d433 2f3a 2244 6a3a
00000060: 5ff5 0fb8 7c59 18b9 3dd2 8cbe 26aa 0c37
00000070: ce17 25ba df96 303a a5be 8a3e a1e4 03b7
00000080: 87f7 e6ba 32ad a1be be49 83b8 42d9 043b
00000090: 4eba 8838 7760 7ab8 c52b 9e3e 6a49 7a3a
000000a0: d9df 0ebb 260e 86ba 14ca aa3a 7ece 9f3e
000000b0: 34bf 7fbe 9045 67ba 789d e3b9 851a 9cbb
000000c0: 5d61 5b38 1ac5 6a3e a5c1 44b8 9f1b 003b
000000d0: a67a 99b8 aef4 58ba 2080 81b9 18be 023a
000000e0: dfd6 68b9 1a3b 19ba f8bc 613b 17f6 aaba
000000f0: ddb1 87be 8ab9 e6bb d0df 793e 6ff8 aa3a
00000100: e74a 01bb e7c1 293b f4a4 f6b8 a1f1 50bd
00000110: 0853 13b9 752a 1e39 9662 003b 27c0 ee37
00000120: 13f6 aaba 8210 2bba c3e6 9ebe 9a95 6b3e
00000130: 2515 423a 5439 84b9 4edf 31be 1b96 0dba
00000140: 3655 0b3a cd8a 75bd cc6d 52b9 1cce 96b8
00000150: d7c2 31bd 98cc c2b9 1033 a5ba 9193 8f39
00000160: 9156 1bbe d805 cbb7 2ff5 d63a 44e3 abba
00000170: da2b 97be 8184 a83a 6760 89be 5a09 9bbd
00000180: a16e 003b eeff df38 58a3 7fb8 2ce2 ab3a
00000190: ddc8 ab37 1e4f c03a 8295 003b a933 873e
000001a0: 0abd 9ebe fcf5 aaba 12f6 aa3a 125e 0d3a
000001b0: 3a39 9439 45d5 8439 bd8e 14ba 3d05 1fba
000001c0: 28e3 abba 3b58 0a39 d683 a836 6d8a 30ba
000001d0: 6969 2eb9 46a1 ffb8 92bd 06be 38e0 963e
000001e0: 0295 8cba 3fdf aab8 3742 fb39 2596 00bb
000001f0: 9f57 fb38 0b22 eeb8 8f95 303a 5949 dfb8
00000200: 781b 8dba 62cc c2b9 4250 a9b8 c87c f0bc
00000210: a2a5 0fba 517c 343a 5c5c abba 7398 0b3b
00000220: 4122 1ebb 5293 89bd 4950 c03a acc7 6e39
00000230: 6991 09bb 654d e639 0b97 303a 5b8f 48ba
00000240: 63e7 3cbb fcd8 65bd 84bd 233b b1a1 233b
00000250: 7edb 233b d2ab 2bba 0802 81bd 63e7 3cbb
00000260: f2be dcbd 2dcf 51bd f5a1 af3a aa54 5abb
00000270: b638 86be 918c 103b 4938 6aba 5358 02ba
00000280: f024 d337 7895 003b 1119 9a3e 0525 98bd
00000290: efaf 9c39 b20a 7639 06f6 aa3a 4f8a 863e
000002a0: d510 a039 bce6 113a 23e6 6eb9 e1c0 a6ba
000002b0: 8610 2b3a b1e6 6638 fe72 8b3a 0a60 cb39
000002c0: 42c8 3a3a 2497 81be 76e3 113a 5e14 8b3a
000002d0: 3723 1ebb 06f1 d63a 32f5 d6ba 4b88 963e
000002e0: 3da7 21bb 6aa0 8dba 5139 a5ba 9d3d 5c3e
000002f0: e231 9f3e b376 3039 894d c03a ba98 303a
00000300: f5ba 31b9 fcf5 aaba 7538 9439 5ea0 8d3a
00000310: 8362 99bd 6e87 0bba a012 123b d84e 30ba
00000320: 2f30 a33e 5416 9938 071e a63a 109f 6f36
00000330: 8b76 a8b9 8109 cfba da9f 2e3a 72e2 ab3a
00000340: 74f5 89b9 13bc ccb6 f825 053b 9cff 7fb8
00000350: c9b7 8a39 1f95 003b 358b ac3a 75e7 3cbb
00000360: c3b4 aa3a 811f 6aba 140d a0bd 4d25 e034
00000370: d578 303a 545a e7b9 0139 6aba 8fff 37be
00000380: f565 e738 2ec8 683a bd71 91be c82d 3bbe
00000390: 3d2c 61b9 b338 233b 1052 8a3b 2803 c8b8
000003a0: 65a9 9ebe bba2 fb3a f732 8737 2af5 d6ba
000003b0: dc96 303a 8ebc 6e3a e0c3 85ba ba7c 9dbe
000003c0: e2c4 69ba 8ae2 abba bc82 debd c073 a63a
000003d0: 46b3 8cb8 d95f c03a 5350 c0ba bfe7 aa3a
000003e0: 05f6 aaba 74c2 6eba 5be6 0e3b 07fb 01be
000003f0: c665 23bb 2c5f 22bb 7ec9 7eba 6eac 2b3a
0.0008524633 -5.5988283e-05 0.07321612 0.0013043276 0.0006560933 -0.0011426628 0.0008936718 -1.6600707e-05
-0.28555292 -1.3903323e-05 -0.0007636897 0.0012604746 0.0043170317 -0.00035174616 3.3693726e-05 -0.0013043302
-0.001080524 -0.0017858474 0.0039146934 0.0007636531 1.10508845e-05 0.00053852424 0.0006683443 0.0008936544
-3.4322376e-05 -0.00014529185 -0.2750415 8.384266e-06 -0.00062977977 0.0006736349 0.27098575 -7.86144e-06
-0.0017621376 -0.3157745 -6.260302e-05 0.0020271097 6.519687e-05 -5.9694485e-05 0.30892769 0.0009547683
-0.0021800904 -0.0010227605 0.0013030195 0.3121223 -0.24975282 -0.00088223163 -0.00043414137 -0.0047639036
5.2304345e-05 0.22926751 -4.6910387e-05 0.0019547713 -7.3184536e-05 -0.0008276206 -0.00024700258 0.00049874326
-0.0002220529 -0.00058452936 0.003444491 -0.0013043311 -0.26502886 -0.007041161 0.24401784 0.001304401
-0.0019728483 0.0025902928 -0.00011760919 -0.051011685 -0.00014049944 0.0001508387 0.0019590012 2.8461289e-05
-0.0013043307 -0.0006525592 -0.31035432 0.23006287 0.00074036635 -0.00025219715 -0.1737034 -0.00054010906
0.00053151266 -0.059946824 -0.00020068063 -7.190948e-05 -0.043398704 -0.00037154998 -0.0012603719 0.0002738503
-0.15169741 -2.4202207e-05 0.0016399975 -0.0013113995 -0.29525644 0.0012856872 -0.26831362 -0.07570143
0.001959719 0.00010681139 -6.0948863e-05 0.0013113669 2.0478323e-05 0.0014672016 0.0019620364 0.264066
-0.310036 -0.001304328 0.0013043305 0.0005392741 0.00028271397 0.000253359 -0.00056670216 -0.0006066149
-0.0013113962 0.00013193574 5.022138e-06 -0.0006734494 -0.00016633201 -0.00012189387 -0.13158253 0.2946794
-0.001072556 -8.1478145e-05 0.00047923785 -0.0019620743 0.000119849334 -0.00011355065 0.0006736153 -0.00010647131
-0.0010765633 -0.0003715484 -8.073497e-05 -0.029356375 -0.00054796983 0.00068849797 -0.001307379 0.0021300584
-0.0024129304 -0.06717552 0.0014672364 0.00022771832 -0.0020991212 0.00043926682 0.00067363743 -0.0007650756
-0.002882444 -0.056115136 0.0024984786 0.0024968202 0.0025002654 -0.00065487355 -0.062992156 -0.002882444
-0.107786074 -0.05122297 0.0013399707 -0.0033314624 -0.26215142 0.002205644 -0.0008934779 -0.0004972268
2.517036e-05 0.001962034 0.3009725 -0.07428936 0.0002988572 0.00023464372 0.0013043291 0.26277396
0.0003053012 0.0005565693 -0.00022783181 -0.0012722277 0.00065255945 5.505112e-05 0.0010639129 0.00038790732
0.00071251777 -0.25310624 0.00055652054 0.0010610928 -0.0024129876 0.0016398735 -0.0016399978 0.29400858
-0.0024666332 -0.0010805253 -0.0012605583 0.21507879 0.31092745 0.00016828887 0.0014671545 0.0006736625
-0.00016949682 -0.001304328 0.00028270824 0.001080524 -0.07489493 -0.000532261 0.0022288933 -0.0006725616
0.318727 7.2997675e-05 0.0012673744 3.5706362e-06 -0.00032131778 -0.0015795679 0.0006661393 0.0013113751
-0.00026313553 -6.1015685e-06 0.002031682 -6.1034792e-05 0.00026458342 0.0019620133 0.0013164046 -0.0028824483
0.0013023842 -0.0008931086 -0.078149945 4.175039e-07 0.00067318726 -0.00044127053 -0.0008934886 -0.17968582
0.00011033929 0.0008879927 -0.28407088 -0.18279183 -0.00021474152 0.0024905622 0.0042212084 -9.537331e-05
-0.30988613 0.0019198278 1.6116986e-05 -0.0016399969 0.0006736347 0.00091070763 -0.001020547 -0.3075922
-0.00089175825 -0.0013113779 -0.10864779 0.0012699291 -6.7091125e-05 0.0014677002 -0.0014672376 0.0013039036
-0.001304329 -0.0009107955 0.0021804783 -0.12693416 -0.0024932488 -0.0024775965 -0.0009719356 0.00065488263

fc3.bias f4 [64]
00000000: 767d 60ba 8141 a9b9 87eb 42b9 e07c ceba
00000010: fcdf 60bb 208d 3dba 1fad 51ba 34ef bdba
00000020: 82af a039 b689 67ba fdce fe36 c14e 99bb
00000030: ec62 12ba 6e77 acba df5f f23a ced7 8c3a
00000040: 3338 df3a 4486 9abb 9aa0 2d39 7620 833a
00000050: 2b1f 25bb 2f88 d9bb 3367 ad39 cdc1 bd37
00000060: 1d7c 5e40 04c6 21bb fcb3 5439 2c45 12bb
00000070: 38c9 58bb efd2 b239 958b 133a cb59 c43a
00000080: 03d3 3d3a 8cd9 74bb d88b dcb9 18e7 deb9
00000090: 75bd 0cbb f39d 9dba 5a38 87bb 1434 813a
000000a0: 8d9c 863a 9426 e2b9 a103 053a 25fc 15bb
000000b0: 2ebb 7939 1ff7 b73a ff9a fcb9 031d 9db3
000000c0: e173 bbb9 3fc6 063c 0a71 1b3b 8f6d 74ba
000000d0: 2dd5 ec3a a333 2d39 6720 0abb 2ec5 d637
000000e0: 4e4c a93a 27dd 29bb bdbd 54ba 31a4 043b
000000f0: 0e2d a3ba 526a 83bb bf56 debb 2168 f3bb
-0.0008563617 -0.00032282996 -0.00018589023 -0.0015753768 -0.0034313193 -0.0007230807 -0.00079985143 -0.0014490844
0.00030648342 -0.0008832471 7.5938865e-06 -0.0046785777 -0.00055841985 -0.0013158151 0.0018491707 0.0010745467
0.0017030298 -0.0047157127 0.00016558394 0.0010004181 -0.002519558 -0.006638549 0.0003307402 2.2620801e-05
3.4763253 -0.0024684677 0.00020284945 -0.0022319062 -0.003307892 0.00034107963 0.00056284043 0.0014980374
0.0007241221 -0.0037361113 -0.00042065862 -0.00042515318 -0.002147523 -0.0012025222 -0.0041265907 0.000985744
0.0010270044 -0.00043134822 0.0005074088 -0.0022885886 0.0002381622 0.001403544 -0.00048180667 -7.3161594e-08
-0.00035753756 0.0082259765 0.00237185 -0.0009324187 0.0018068902 0.00016517802 -0.0021076442 2.5602607e-05
0.0012916417 -0.002591917 -0.00081154314 0.0020239467 -0.001244934 -0.004010477 -0.0067852433 -0.0074281846

fc4.weight f4 [9, 64]
00000000: df3c 4cbe 42bb 5137 4748 fab7 eae3 8abc
00000010: 2d70 0ebd cc1d 36be 7a66 86be 7072 a2be
00000020: 4249 c2bd b292 a2be 4396 49be 70e5 71be
00000030: fbed 30be 6efa d3be 07e0 01be a451 25be
00000040: 24c6 3137 b290 a0be 1661 2cbe 3120 29be
00000050: f022 f5be 6d2a 2ebe de14 02b7 3d68 a636
00000060: 4c85 cfbe 086d 86be f484 3fbe b655 a1be
00000070: 601d a2be abe6 4738 7ac1 8a3d d981 6bb7
00000080: cc0a a2be 3a30 b8bd e829 17b8 2b65 aabe
00000090: b9d9 7cb9 6fd0 61be 0947 a2be 9b0d 88be
000000a0: c9a6 30b8 2de5 99b7 dbd1 d4b7 8c97 7cbe
000000b0: 87fb 24b5 e328 043e 7fe4 9fbe ed78 a2be
000000c0: d9fd 3db8 627b 38bc 40f5 71be a38f a2be
000000d0: 1282 a2be b1dc b637 84d6 24be b2fd 9435
000000e0: 6578 5ebe ea34 febb 1265 7a3d c787 37b5
000000f0: 499a 9cbe 378e 85be 8be7 7f3c be8a 10be
00000100: ed19 ad3d 3a5e 9db7 f758 c3b7 a3d2 993c
00000110: 547f 9a3c c731 733d 1e3d 5b3e b26e a23e
00000120: 23fa f73d 6f84 a23e 4043 d33d 1cda ef3d
00000130: a93b e23b c5e0 f83e 0445 ce3a 3b37 88bd
00000140: f6c3 c937 be16 113d 63cf 483d 3a3b 633d
00000150: c01a 0d3f fd4b 5d3e d4b4 8938 3365 61be
00000160: ff75 f1be 3687 5a3e c58e 9d3d bc92 a13e
00000170: 8260 a23e cff6 fab8 985f 50be 955b 9c38
00000180: 891e a23e 7af6 8a3e 69cf 07b9 baf2 3236
00000190: d8c8 c039 3295 d53a 2543 a23e a49b 1c3e
000001a0: ccdc 70b9 2ab9 933e c02c 9ab8 3b84 cc3d
000001b0: 1f32 5039 9028 89b6 133b a03e d17b a23e
000001c0: 5700 01b9 c9a0 9f3e a53a 403d f987 a23e
000001d0: 5984 a23e 3e09 2f38 4e80 83b7 b499 22b5
000001e0: 7aa5 623e 8519 6a3e 1160 a4bd 36c4 063e
000001f0: 40e7 9b3e efaf 383e ebb7 d13d 9ec4 743e
00000200: 592a 17b9 2cab 293a c5af cab9 db2e f239
00000210: 3363 fd39 e35e 1ab9 0248 2539 cb9c 1939
00000220: addc b039 d2f8 d738 7ea7 933a a53c b5b9
00000230: 9fcd 043a 3c5c 5bb9 c711 7739 b2a2 e939
00000240: d602 fa39 5808 9738 cc6e cbba 6a2e e438
00000250: 8cfe 9938 28f0 a2ba 30da c6b9 2fe6 a0ba
00000260: cdf1 b8bf 4f53 cdba f27c 28ba af83 4139
00000270: 2d1e 98b8 e4a6 38ba 227c 5239 ba59 22b9
00000280: d2a4 dcb8 a5f2 2838 e6a9 82b9 f118 ed37
00000290: 9784 13ba 1377 07ba e22e 0338 3e20 4a37
000002a0: bba0 30b7 52e8 93be d4d0 a539 addf bd39
000002b0: eccf 77b9 0a16 bfb9 2b9e 2d39 08f3 20ba
000002c0: 56b3 9438 a714 9fbe 84b3 b738 a498 e138
000002d0: 0d44 db39 29cf b639 7516 9a39 3992 dbba
000002e0: c016 33b4 1819 2cba f5fc dbb7 545c 9ebe
000002f0: ba61 1bba ccfc 8bb9 d99c 6339 d102 0db8
00000300: c5b2 2fbe 6e21 613a 7d06 e8b5 d14c c539
00000310: 7782 9fba 227a 7bbe a79d 0fba d654 d437
00000320: ea74 3cbe 3cf0 36be de2f 7abd a4a8 52be
00000330: fd48 58b9 28ec 5839 a4e0 51b7 4f27 7abe
00000340: 6f32 3a39 f7e4 19bb 6b85 fbb8 7592 60be
00000350: 5040 313a de07 5239 d1b2 30b9 0afc c7ba
00000360: 9832 abbf c421 1239 13cd ad38 caec 833a
00000370: 3c74 bf39 9c25 39be 1da5 3b39 f5fd 33be
00000380: 33d2 41bd 7540 a438 7ee7 f638 7c3f 8fbe
00000390: 5e5c 83bd bf9f 5fbe 2cda 00be 73b9 48b9
000003a0: c571 8cbe 3431 29bd 11c8 0cbe 9eea 263a
000003b0: d41f 60be 9aa7 3abe 2e1d 5f39 b981 94bd
000003c0: b1c5 56be 26a8 91bd fec0 8fbd 13b7 b93a
000003d0: 2181 79be 638b c438 6eb1 e9b8 2acb a9b8
000003e0: 3dba 92bd 38c4 57be 9eb4 44bd a4b5 82be
000003f0: 4551 94bd 563f 26ba 550f e4b9 3076 38be
-0.19945095 1.250097e-05 -2.983598e-05 -0.016954381 -0.034774948 -0.17784804 -0.26250058 -0.31727934
-0.09486629 -0.31752545 -0.19686227 -0.2362268 -0.17278282 -0.41402 -0.12683116 -0.16144425
1.0596155e-05 -0.31360394 -0.1683391 -0.16516186 -0.47878218 -0.17008372 -7.753462e-06 4.9593204e-06
-0.40531385 -0.2625506 -0.18703061 -0.31510705 -0.31663036 4.7660124e-05 0.06775184 -1.4037324e-05
-0.31648862 -0.089935735 -3.6040234e-05 -0.3328031 -0.00024113701 -0.22052167 -0.3169482 -0.2657288
-4.2117e-05 -1.834574e-05 -2.5370091e-05 -0.24667186 -6.146078e-07 0.12906222 -0.31229016 -0.31732884
-4.5297526e-05 -0.0112598855 -0.23628712 -0.3175021 -0.3173986 2.1798858e-05 -0.16097456 1.1100694e-06
-0.21725614 -0.0077577727 0.061131544 -6.8370395e-07 -0.3058646 -0.26085064 0.015619169 -0.14115426
0.084522106 -1.8759736e-05 -2.3287239e-05 0.018777197 0.018859543 0.059373643 0.21410033 0.3172508
0.12108257 0.31741664 0.10315561 0.11711523 0.0069040847 0.48608986 0.0015737121 -0.066511594
2.4052319e-05 0.03542208 0.049025904 0.055476405 0.5511894 0.21611018 6.566351e-05 -0.2201126
-0.47160336 0.21340641 0.07693247 0.31557262 0.31714255 -0.00011966901 -0.20348966 7.455718e-05
0.3166392 0.27141172 -0.0001295187 2.6665352e-06 0.00036770734 0.0016295074 0.31691852 0.15293747
-0.00022970437 0.28852206 -7.3516276e-05 0.099861585 0.00019855097 -4.0876403e-06 0.3129507 0.3173509
-0.00012302525 0.31177357 0.046930928 0.31744364 0.31741598 4.173186e-05 -1.5676163e-05 -6.057337e-07
0.22133437 0.22861297 -0.08026136 0.13160786 0.30449867 0.18035863 0.10240158 0.23903129
-0.00014416258 0.0006472345 -0.000386594 0.00046192747 0.0004832983 -0.00014721933 0.00015762451 0.00014649627
0.00033733752 0.00010298345 0.0011265127 -0.00034568194 0.00050660403 -0.00020919828 0.00023562378 0.0004456244
0.0004768583 7.201795e-05 -0.0015520691 0.000108805325 7.3430216e-05 -0.0012431191 -0.00037928065 -0.0012275631
-1.4448792 -0.0015665087 -0.00064273097 0.0001845497 -7.2535455e-05 -0.00070439116 0.00020073404 -0.0001548295
-0.00010521118 4.02803e-05 -0.00024922116 2.8264216e-05 -0.00056273624 -0.0005167585 3.1276497e-05 1.2047645e-05
-1.05278405e-05 -0.28888184 0.00031626842 0.0003621554 -0.00023633213 -0.0003644678 0.00016557488 -0.000613973
7.090594e-05 -0.31070444 8.7595574e-05 0.000107572676 0.00041821637 0.00034868091 0.000293899 -0.0016751952
-1.667895e-07 -0.00065650186 -2.6224627e-05 -0.30929816 -0.0005927343 -0.00026700494 0.00021706837 -3.3619643e-05
-0.17158039 0.000858805 -1.7287235e-06 0.00037632 -0.0012169619 -0.24558309 -0.0005478509 2.5311874e-05
-0.18403974 -0.1786508 -0.061080806 -0.20572144 -0.00020626555 0.0002068734 -1.2509674e-05 -0.24429058
0.0001775713 -0.002348242 -0.00011993464 -0.21930869 0.00067615975 0.00020030091 -0.00016851282 -0.0015257609
-1.3374815 0.00013936224 8.287481e-05 0.0010065075 0.0003651696 -0.18080753 0.00017895219 -0.17577346
-0.047319602 7.8321355e-05 0.00011773313 -0.27978122 -0.06414102 -0.21838282 -0.12583226 -0.00019142572
-0.2743055 -0.04130669 -0.13748194 0.0006367358 -0.21887141 -0.18227997 0.00021277808 -0.07251305
-0.20973851 -0.0711215 -0.07019232 0.001416894 -0.24365665 9.371971e-05 -0.00011143355 -8.09639e-05
-0.071644284 -0.21070945 -0.048023812 -0.25529206 -0.072420634 -0.0006341835 -0.00043498972 -0.18013835

fc4.bias f4 [9]
00000000: eb74 803f 8ec1 39bf 1116 1fba 8d1a 9339
00000010: d217 a939 07ed a73a 0718 1fbc b36d 2fbb
00000020: 62ed a2ba
1.003568 -0.72560966 -0.0006068657 0.00028057807 0.0003225194 0.0012811729 -0.009710318 -0.0026768267
-0.0012430365
