Model Weights/model_weights_binaryfinal.pth (torch, 54360 bytes, 7 tensors)

fc1.weight f4 [64, 67]
000000 18 87 36 39 e0 bf 29 bb 57 99 30 3a 7c a1 1f 3a
       0.00017407199 -0.002590172 0.00067367166 0.00060894317
000010 aa f6 89 b9 5d f8 aa 3a 53 15 5c b8 5d 69 b9 ba
       -0.00026314455 0.0013043989 -5.2471947e-05 -0.0014145781
000020 48 e3 ab ba 8b e7 0e 3b 05 90 48 3a b6 e6 0e 3b
       -0.0013114 0.002180549 0.0007650855 0.0021804995
000030 24 58 02 ba c5 b7 0b 39 88 dc 56 b8 24 56 0d 3a
       -0.00049722404 0.00013324532 -5.122696e-05 0.0005391559
000040 67 f6 aa 3a 9d f7 a1 ba ed 3b 91 3a 38 f5 d6 ba
       0.0013043404 -0.001235712 0.0011080481 -0.0016399985
000050 fb ee 9f 3a bb 51 f9 ba db 60 29 bb e4 f7 aa 3a
       0.0012201959 -0.001902155 -0.0025845084 0.0013043848
000060 61 e3 ab 3a db e6 0e 3b 51 49 6a ba 3c 84 1e 3b
       0.0013114029 0.002180508 -0.00089373166 0.0024187705
000070 2e 97 30 ba ea 45 6a 3a 4c 49 6a ba d7 8c f1 39
       -0.0006736395 0.00089368096 -0.00089373137 0.00046072036
000080 d1 41 8c ba 59 50 c0 3a 0a 96 00 bb 60 47 6a 3a
       -0.0010700767 0.0014672383 -0.001962068 0.00089370273
000090 a1 f8 aa ba bf 55 02 ba 64 f8 aa ba 21 49 6a ba
       -0.0013044068 -0.00049718836 -0.0013043997 -0.00089372887
0000a0 52 e2 ab ba 36 96 00 3b 4d 98 30 ba 38 76 6f 39
       -0.0013113713 0.0019620783 -0.0006736562 0.00022836856
0000b0 81 e6 0e bb ff 1f 1b ba 38 e4 ab 3a 6e c5 95 ba
       -0.0021804872 -0.00059175486 0.0013114279 -0.0011426636
0000c0 55 52 8a bb 57 90 c8 ba 86 e6 1f bb 87 f8 aa 3a
       -0.0042212405 -0.0015301806 -0.0024398877 0.0013044038
0000d0 7e a1 1f 3a 34 48 6a 3a b6 f7 aa 3a 3b 8f 48 ba
       0.0006089433 0.00089371507 0.0013043794 -0.00076507375
0000e0 59 50 c0 3a d9 54 5a bb 61 48 6a 3a 68 9a 30 ba
       0.0014672383 -0.0033314733 0.0008937177 -0.00067368755
0000f0 a1 58 02 ba 70 91 48 3a dd e5 0e bb c8 8e 48 3a
       -0.0004972313 0.00076510664 -0.002180449 0.00076506706
000100 92 e2 ab 3a 06 96 00 bb d0 95 00 bb 33 1e 5e ba
       0.0013113788 -0.001962067 -0.0019620545 -0.0008473128
000110 46 39 a5 3a f2 8c f1 b9 76 e3 ab 3a a7 8e 48 ba
       0.001260557 -0.00046072114 0.0013114053 -0.00076506514
000120 0b 35 4e 3b 6e 77 8d 3b 35 9b 30 3a ba 47 6a ba
       0.0031464722 0.0043172156 0.0006736995 -0.00089370797
000130 9c 56 02 3a eb 95 00 3b d4 d2 10 ba d1 41 8c ba
       0.0004972012 0.0019620608 -0.000552458 -0.0010700767
000140 9a 59 02 3a 87 a1 1f 3a a5 13 ea 3a 59 50 c0 ba
       0.0004972458 0.0006089438 0.0017858638 -0.0014672383
000150 39 3e 6a ba 06 c2 6e ba bc 5a 1e bb 39 44 6a ba
       -0.00089356635 -0.0009107891 -0.0024162969 -0.00089365576
000160 c5 a1 23 3b 4c b2 21 bb a6 e6 0e bb 9f 95 00 3b
       0.0024968248 -0.0024672924 -0.0021804958 0.001962043
000170 f8 f7 aa 3a eb 8c f1 39 8f 43 6a ba 50 e6 0e 3b
       0.0013043871 0.00046072094 -0.00089364586 0.0021804757
000180 b7 a3 23 bb b0 e3 ab 3a f4 cd c2 39 2d ad 2b ba
       -0.0024969408 0.0013114121 0.0003715601 -0.00065489375
000190 72 47 25 bb ab a8 61 b9 be f8 aa ba d2 47 6a ba
       -0.0025219587 -0.00021520506 -0.0013044102 -0.00089370937
0001a0 6d c5 95 3a 44 e3 ab ba 5f 20 1b ba 3e f5 d6 3a
       0.0011426635 -0.0013113995 -0.00059176044 0.0016399992
0001b0 3a 6b 88 3a 65 1d 13 3a 4a 56 02 3a 7b f8 aa 3a
       0.0010407933 0.0005611985 0.00049719645 0.0013044024
0001c0 fe e2 ab 3a 09 e3 ab 3a 36 e2 ab 3a 34 a5 f6 b8
       0.0013113914 0.0013113926 0.0013113681 -0.000117609656
0001d0 5c e6 0e 3b 35 c2 29 3b f5 34 69 b9 d9 f7 aa 3a
       0.0021804785 0.002590311 -0.0002224034 0.0013043835
0001e0 d8 e3 ab 3a cf 0b cf ba 08 96 45 3a c5 77 8d 3b
       0.0013114167 -0.0015796366 0.000753731 0.004317256
0001f0 9b 77 8d 3b df 8c f1 b9 51 e6 6e b9 61 f8 89 39
       0.0043172366 -0.0004607206 -0.00022783248 0.00026315733
000200 ec ce c2 39 a8 be 02 3a 8c 10 2b ba 32 b7 ef ba
       0.00037156732 0.00049875164 -0.0006525598 -0.0018288849
000210 e6 e5 0e bb 2c 96 00 3b f9 ab 84 b8 fb 3b be b9
       -0.002180451 0.001962076 -6.326283e-05 -0.00036284313
000220 0a 97 30 ba 60 44 6a ba 0f f6 aa 3a 07 97 30 ba
       -0.0006736374 -0.000893658 0.0013043302 -0.0006736372
000230 19 46 6a ba 33 44 6a 3a 66 a0 8d ba 73 ef 89 39
       -0.0008936837 0.0008936554 -0.0010805249 0.0002630908
000240 55 a5 f6 b8 34 f5 d6 ba d0 73 6f b9 51 8f 48 ba
       -0.000117609896 -0.001639998 -0.0002283596 -0.00076507503
000250 bc 54 02 3a a7 c6 95 3a 6f 98 30 3a 38 de 89 b7
       0.0004971733 0.0011427001 0.00067365816 -1.6435151e-05
000260 8b c3 95 ba 0a 15 ea 3a 9d e9 1a ba 00 8e d6 3a
       -0.0011426074 0.0017859053 -0.0005909445 0.0016369224
000270 2f 1c 6a 3a 70 58 02 3a a2 54 5a bb 5b 55 02 ba
       0.0008930591 0.00049722847 -0.0033314605 -0.00049718254
000280 59 95 00 bb 8b 71 95 3a b3 8f 48 ba a0 e6 0e bb
       -0.0019620268 0.0011401636 -0.00076508074 -0.0021804944
000290 36 f9 aa 3a 77 d2 10 3a 64 50 a9 b8 ac 47 6a ba
       0.0013044241 0.0005524526 -8.073522e-05 -0.00089370715
0002a0 c4 e2 ab ba 30 b7 ef 3a 61 f8 aa 3a 71 e3 ab 3a
       -0.0013113846 0.0018288847 0.0013043993 0.0013114047
0002b0 50 d6 10 3a 4f 39 a5 3a e5 6a 88 3a 6d e6 1f 3b
       0.0005525099 0.001260558 0.0010407834 0.002439882
0002c0 51 95 00 bb d5 d4 10 3a ab 54 5a bb 4c 6b 88 ba
       -0.001962025 0.00055248785 -0.0033314626 -0.0010407954
0002d0 63 12 5c 38 90 10 2b 3a 87 e6 0e 3b 96 f8 aa ba
       5.246921e-05 0.00065256003 0.0021804885 -0.0013044055
0002e0 3f f5 d6 3a 4b 95 00 bb 07 16 ea 3a 67 f8 89 39
       0.0016399993 -0.0019620236 0.0017859348 0.0002631575
0002f0 20 f8 aa 3a 29 c2 29 bb 05 96 00 bb e7 8f 48 3a
       0.0013043918 -0.0025903082 -0.0019620669 0.00076508377
000300 11 90 48 3a b5 10 a7 b8 66 c5 95 ba 49 39 a5 ba
       0.0007650862 -7.9662925e-05 -0.0011426627 -0.0012605573
000310 34 95 00 bb e6 95 00 bb 09 f9 aa ba 6b 8d 48 ba
       -0.0019620182 -0.0019620596 -0.0013044189 -0.00076504675
000320 67 f8 aa ba 0a 74 ca b8 f2 29 0a b9 63 d5 10 3a
       -0.0013044 -9.6537246e-05 -0.00013176331 0.0005524961
000330 6d 99 30 ba 4d 8e 48 3a 74 97 30 3a 37 44 6a 3a
       -0.00067367294 0.0007650599 0.00067364355 0.00089365564
000340 76 97 30 3a 60 c5 95 ba 6f cf 10 ba 6e e6 1f 3b
       0.00067364366 -0.001142662 -0.0005524074 0.0024398821
000350 29 f5 d6 3a 94 10 2b ba e1 e6 0e bb b1 b2 93 b9
       0.0016399968 -0.00065256027 -0.0021805095 -0.0002817116
000360 13 81 fe b9 f7 82 2c 38 43 63 23 be 9f 9a 23 bb
       -0.00048542823 4.1129966e-05 -0.15955834 -0.0024963988
000370 99 ab 2b 3a 70 35 a6 b9 5f 51 67 b8 99 6b 30 3a
       0.00065487024 -0.000317018 -5.5150475e-05 0.00067299005
000380 6e a1 1f 3a 7b 46 6a ba 86 b6 ef 3a b3 8f 48 3a
       0.00060894236 -0.0008936894 0.0018288649 0.00076508074
000390 2e e3 ab ba e0 8d 48 ba f9 e5 0e bb e7 0b cf 3a
       -0.001311397 -0.00076505356 -0.0021804555 0.0015796394
0003a0 02 e2 ab ba 51 d5 10 3a 56 50 c0 3a 52 50 c0 3a
       -0.001311362 0.00055249507 0.001467238 0.0014672375
0003b0 a5 a5 f6 b8 98 91 48 ba 3a c2 29 bb d1 8e 48 3a
       -0.00011761048 -0.00076510897 -0.0025903122 0.0007650676
0003c0 ce 55 31 3a d2 4f a9 38 98 8e 48 3a b7 8f 48 ba
       0.00067648 8.073416e-05 0.00076506427 -0.000765081
0003d0 59 50 c0 3a a8 91 48 3a 89 e2 ab ba 84 99 30 3a
       0.0014672383 0.0007651099 -0.0013113777 0.0006736743
0003e0 4d 98 30 ba a2 4f a9 38 6a e3 ab 3a 1c 96 00 bb
       -0.0006736562 8.073381e-05 0.0013114039 -0.0019620722
0003f0 21 47 6a 3a e6 95 00 bb b4 47 6a 3a 4f d9 a8 b8
       0.00089369906 -0.0019620596 0.0008937076 -8.051341e-05

fc1.bias f4 [64]
000000 19 49 6a ba 48 48 6a 3a f5 8f 48 3a a2 4f a9 38
       -0.0008937284 0.00089371623 0.0007650846 8.073381e-05
000010 0f 91 48 3a 8d da 04 bb b9 10 5c b8 6b c5 95 3a
       0.000765101 -0.0020271868 -5.246766e-05 0.0011426633
000020 92 46 6a ba 9d e6 0e 3b 8d e3 ab ba 9b 71 6f b9
       -0.00089369074 0.0021804937 -0.001311408 -0.00022835137
000030 e2 f8 aa 3a d6 40 9d bb 80 56 02 ba 6c 44 6a ba
       0.0013044144 -0.004798989 -0.0004971996 -0.0008936587
000040 00 49 6a ba 2e e6 0e bb 05 f6 aa ba c1 48 6a ba
       -0.00089372694 -0.0021804678 -0.001304329 -0.0008937233
000050 a6 75 6f 39 b7 e6 0e bb 6b 99 30 ba 33 44 6a ba
       0.00022836644 -0.0021804997 -0.0006736728 -0.0008936554
000060 16 39 94 b9 7c 48 6a 3a c4 e6 0e bb 2f 47 6a ba
       -0.00028271292 0.00089371926 -0.0021805027 -0.0008936999
000070 64 59 02 ba 31 47 6a ba 9a e3 ab ba 8c e3 ab ba
       -0.00049724267 -0.0008937 -0.0013114095 -0.0013114079
000080 ab 55 02 3a c8 e6 0e 3b 16 44 6a 3a 72 c5 95 3a
       0.0004971872 0.0021805037 0.0008936537 0.0011426641
000090 bb 8d 48 ba a8 54 5a bb 7e a1 1f ba f9 90 48 ba
       -0.0007650514 -0.003331462 -0.0006089433 -0.0007650997
0000a0 e8 95 00 3b 8d 10 2b 3a 2b f5 d6 ba 12 48 6a ba
       0.00196206 0.00065255986 -0.001639997 -0.0008937131
0000b0 52 cb c2 b9 3d c4 6e ba d0 e6 0e bb 2a 88 b8 b9
       -0.0003715405 -0.0009108221 -0.0021805055 -0.00035196665
0000c0 fa f8 aa ba 9d f7 aa ba d9 f6 aa 3a 0c e4 ab ba
       -0.0013044172 -0.0013043765 0.0013043537 -0.0013114228
0000d0 4d 50 c0 3a 9e a3 af 3a f5 e5 0e 3b 6e cb c2 39
       0.0014672369 0.0013400202 0.0021804546 0.0003715413
0000e0 fa 34 4e 3b 83 97 30 ba 40 6b 88 3a 21 1d 13 3a
       0.0031464682 -0.0006736444 0.001040794 0.00056119455
0000f0 18 24 81 3a 2e f5 d6 3a 80 da 04 3b a2 55 31 3a
       0.0009852676 0.0016399974 0.0020271838 0.00067647744

fc2.weight f4 [64, 64]
000000 e4 d5 10 3a 21 16 ea ba 71 af 8a be 73 23 4a be
       0.0005525036 -0.0017859378 -0.27086976 -0.19740085
000010 40 0e a0 b9 17 9b 30 3a fd f5 aa 3a 49 e3 be ba
       -0.00030528195 0.00067369774 0.0013043281 -0.0014563586
000020 8c e3 6c be 3c 44 6a 3a 3f fb d7 b9 29 f2 d6 3a
       -0.23133677 0.00089365593 -0.00041195189 0.0016399074
000030 68 9c 6b be 37 7b 43 ba b6 f0 68 be 8a c9 1e ba
       -0.23008883 -0.000745702 -0.22748074 -0.00060572533
000040 0f a7 27 3b 8c da a2 3a 92 76 64 be 36 b1 ed 39
       0.0025581752 0.0012424751 -0.22310856 0.00045336195
000050 68 c5 95 ba 4a 5d 6b be e1 57 02 3a 79 f8 aa ba
       -0.001142663 -0.22984806 0.00049722014 -0.0013044021
000060 ee 62 55 be 1f 26 ac ba 51 39 a5 ba 2e 1d 1b ba
       -0.2083852 -0.001313392 -0.0012605583 -0.0005917129
000070 d9 ed 84 be c5 14 5f be b8 c9 00 3b 89 22 12 b8
       -0.25962713 -0.21785267 0.0019651484 -3.4841276e-05
000080 dc 4a aa 3a d8 f4 aa ba 89 e5 0e 3b 85 f0 a9 3a
       0.001299228 -0.001304294 0.0021804294 0.0012965357
000090 e1 27 6a 3a 2a 97 30 3a 5c c4 6e 3a f2 96 30 ba
       0.0008932334 0.00067363924 0.00091082393 -0.000673636
0000a0 22 1c 70 be c7 e6 0e bb 58 fc 46 ba 4d 0c a7 3a
       -0.23448232 -0.0021805034 -0.0007590703 0.0012744755
0000b0 3c 13 94 3a 5f 66 b9 3a 02 2d 03 ba fe 46 6a ba
       0.0011297236 0.0014144889 -0.000500396 -0.000893697
0000c0 1a 8d 8e be 4d 02 45 3a c8 8d 46 be 71 a1 1f ba
       -0.27842027 0.00075152965 -0.19390023 -0.00060894253
0000d0 ce e7 0e 3b f1 26 9d ba 09 93 48 ba 6f bf dc b9
       0.0021805647 -0.0011989755 -0.00076513045 -0.000421043
0000e0 f1 f8 aa ba 09 97 30 3a 17 0b 67 3a 0b 97 30 3a
       -0.0013044161 0.0006736373 0.0008813603 0.00067363743
0000f0 1a d3 a5 b8 76 ed 59 be ef 18 7e b9 95 f5 89 b9
       -7.907134e-05 -0.2128199 -0.00024232616 -0.0002631365
000100 39 27 94 39 8c 10 2b 3a 09 03 ab 3a 14 97 30 3a
       0.00028257983 0.0006525598 0.0013047169 0.00067363796
000110 e5 96 30 ba f5 8d 48 ba 76 cb c2 b9 88 aa 23 3b
       -0.0006736352 -0.0007650548 -0.00037154154 0.002497347
000120 c1 7b 24 3b 30 87 00 bb 20 8c 8d 3a da 3a 5a 3b
       0.0025098177 -0.0019611828 0.0010799207 0.0033299238
000130 cb 54 00 bb 95 98 30 ba 7b 70 9f b9 12 97 30 ba
       -0.001958179 -0.00067366037 -0.00030410648 -0.00067363784
000140 1d f6 aa ba f7 f5 aa 3a 39 3e 88 ba 28 44 6a ba
       -0.0013043318 0.0013043274 -0.001039452 -0.00089365477
000150 ae e2 ab ba 34 54 12 ba b7 8e 48 3a a7 9a 30 3a
       -0.001311382 -0.0005582005 0.00076506607 0.0006736912
000160 9e a9 29 3b ce 3a 5a 3b 29 97 30 3a 6a 09 13 3a
       0.0025888453 0.003329921 0.0006736392 0.0005609008
000170 01 90 69 ba f0 60 aa ba ed f7 aa 3a b0 90 23 3b
       -0.0008909703 -0.001299886 0.0013043858 0.0024958067
000180 c0 ae ed b9 88 c8 ab 3a e0 fb 2a 3a e3 46 6a 3a
       -0.00045334361 0.0013106028 0.00065225177 0.00089369545
000190 ac a1 af 3a f7 f5 aa 3a 15 96 00 bb 13 be 23 bb
       0.0013399622 0.0013043274 -0.0019620706 -0.002498512
0001a0 6a 1f ad 3a 43 8f 48 3a 63 a2 23 3b 85 e1 ab 3a
       0.0013208215 0.0007650742 0.0024968616 0.0013113475
0001b0 73 a1 1f 3a 06 f6 aa 3a fb 95 00 bb 17 97 30 ba
       0.00060894265 0.0013043291 -0.0019620645 -0.00067363813
0001c0 fd 08 2b ba 26 e5 0e 3b c1 8f 48 ba e5 10 a0 b9
       -0.00065244717 0.0021804064 -0.00076508155 -0.00030530166
0001d0 89 ab 02 3a 48 24 a5 3a 2d 44 6a ba 18 8b 23 bb
       0.0004984667 0.0012599314 -0.00089365506 -0.0024954733
0001e0 02 f8 da ba 5c 4e d0 b9 05 97 30 3a 3c e2 ab ba
       -0.0016705992 -0.00039731234 0.0006736371 -0.0013113688
0001f0 6e 67 b9 ba 49 a4 ef ba 8c a0 ef ba 5f a0 8d ba
       -0.0014145204 -0.0018283214 -0.00182821 -0.0010805241
000200 81 e9 ce ba 33 9b 30 ba da c4 a6 b8 ea d4 10 3a
       -0.0015786142 -0.00067369937 -7.952163e-05 0.0005524891
000210 0b 8c 30 ba d1 57 02 ba 97 e6 0e bb 7a ef aa 3a
       -0.0006734735 -0.0004972192 -0.0021804923 0.001304134
000220 00 57 ef 3a d0 d6 6e 39 04 ef aa ba 7b 91 30 ba
       0.0018260181 0.00022777473 -0.0013041203 -0.00067355455
000230 81 6e 48 ba ba 8b 00 bb dc 4e 48 ba ff f5 aa ba
       -0.0007645861 -0.0019614534 -0.00076411455 -0.0013043283
000240 bd 8a 30 ba 41 9b 12 3a 31 27 a5 ba 59 8e 48 ba
       -0.0006734541 0.00055925926 -0.0012600181 -0.0007650606
000250 e1 c0 29 3b 7d 12 8a bb e0 f5 89 39 80 7e 43 ba
       0.0025902318 -0.0042136298 0.00026313867 -0.00074575096
000260 18 9b 8d 3a 44 3d 6a 3a e2 7b 8d 3b 0e 00 04 3b
       0.0010803668 0.0008935521 0.0043177465 0.0020141634
000270 63 b9 3c bb a2 16 9d bb 71 ea 3b 3a 0d 91 00 bb
       -0.0028797023 -0.004793958 0.00071684184 -0.0019617707
000280 15 49 6a 3a a8 0a ea ba 59 91 00 bb a3 02 2b ba
       0.00089372817 -0.0017855959 -0.0019617884 -0.0006523525
000290 c6 8d 48 3a 1e d8 ab 3a 20 9a ab 3a 18 18 5f 3b
       0.00076505204 0.0013110673 0.0013092197 0.003404146
0002a0 ca b5 29 bb a3 0b 5c b8 dc 10 a0 39 46 ee aa 3a
       -0.0025895708 -5.2462925e-05 0.0003053014 0.0013040982
0002b0 f0 08 5c b8 cf 8e 30 ba 0e cd 6e b9 c4 a1 23 bb
       -5.246041e-05 -0.00067351473 -0.00022773838 -0.0024968246
0002c0 bc 38 94 39 61 1d 13 ba 5a 67 b9 3a 2f bb ef 3a
       0.0002827103 -0.0005611983 0.0014145181 0.0018290038
0002d0 56 20 a5 3a 4a dc ab ba 9c da 22 3a 93 a4 f6 b8
       0.0012598138 -0.0013111916 0.0006212385 -0.000117608484
0002e0 80 07 89 b8 87 f7 aa ba 77 e8 aa 3a 4b 39 a5 3a
       -6.534066e-05 -0.001304374 0.0013039251 0.0012605576
0002f0 8f eb 8a 3a 67 ab b1 3b be f9 08 3b 7c 98 30 ba
       0.0010598766 0.005422044 0.002090081 -0.0006736589
000300 f3 8d 48 3a 14 e2 aa 3a 18 07 d7 b9 1d 24 31 3a
       0.00076505466 0.0013037347 -0.0004101328 0.00067573955
000310 7c a6 a1 ba d3 62 ef ba d4 5e a8 3a ff f5 aa 3a
       -0.0012332941 -0.0018263705 0.0012845644 0.0013043283
000320 42 a5 39 3a fa 8c f1 b9 10 d7 10 3a 4f ea 7f 3a
       0.0007081815 -0.00046072138 0.0005525211 0.0009762393
000330 bf 68 88 b9 c5 61 c6 3a 1c 1c 86 ba 31 97 30 3a
       -0.00026017983 0.0015135339 -0.0010231766 0.00067363965
000340 f2 96 30 3a d4 bf 29 3b 86 a7 c9 b8 cf d9 10 3a
       0.000673636 0.0025901692 -9.6156306e-05 0.000552562
000350 9d 6c 1a ba 93 c8 04 bb f5 96 30 ba 23 97 30 ba
       -0.00058908184 -0.0020261153 -0.00067363615 -0.00067363883
000360 ba b3 f3 3a ce 89 c8 3a 58 a7 1f 3a ab 18 ac b9
       0.0018592991 0.0015299858 0.0006090305 -0.00032824776
000370 0f 7f b2 b9 ce 5c 5b 3b 96 42 6a 3a 4f 50 c0 ba
       -0.00034045472 0.0033472064 0.00089363137 -0.0014672371
000380 1c 4d 84 ba 6f b2 52 ba 6c d7 a0 ba 77 5c 43 3a
       -0.0010093781 -0.0008037453 -0.0012271232 0.0007452438
000390 82 e9 66 ba 3e 44 46 3a 5b e7 3c bb 3b 33 4e bb
       -0.0008808599 0.00075632695 -0.0028824422 -0.0031463641
0003a0 60 e6 5b 3a 71 a6 46 ba 8c 16 00 bb 5d fd a7 b9
       0.00083885156 -0.0007577902 -0.001954469 -0.00032041493
0003b0 ec a6 1a ba 23 02 5c 38 3b 82 1f ba 12 41 6a 3a
       -0.0005899507 5.2454077e-05 -0.00060847745 0.0008936088
0003c0 17 71 74 38 a8 23 3f ba 03 7d 97 ba d0 b0 0b bb
       5.8279456e-05 -0.0007291385 -0.0011557642 -0.0021315105
0003d0 14 4c 02 ba 8b 9b 93 3a d9 41 c0 3a 84 ac f6 b8
       -0.0004970443 0.0011261565 0.0014668062 -0.000117623276
0003e0 f2 97 2b 3a 14 a5 f6 b8 e8 65 01 3a 53 e7 6c 39
       0.0006545774 -0.00011760942 0.00049361447 0.00022592889
0003f0 a2 4f f0 38 61 4c 71 bb 8d b0 0e 3b 72 da ab 3a
       0.000114589246 -0.0036819207 0.0021772713 0.0013111366

fc2.bias f4 [64]
000000 68 c0 29 bb f4 b0 9f 3a 39 44 6a 3a 05 45 6a 3a
       -0.0025902037 0.0012183473 0.00089365576 0.00089366763
000010 6b 44 6a 3a 62 f8 aa ba 30 48 6a ba d9 b6 ef ba
       0.00089365867 -0.0013043995 -0.00089371484 -0.0018288746
000020 9c 10 2b 3a ed 98 30 3a 6d 0f a7 b8 6c f9 aa ba
       0.00065256073 0.0006736655 -7.966054e-05 -0.0013044304
000030 14 e3 ab 3a ca e6 0e 3b e1 48 6a 3a 35 8f 48 ba
       0.0013113939 0.0021805041 0.00089372514 -0.0007650734
000040 30 e3 ab ba 55 50 c0 ba 30 f9 aa 3a 7f d5 10 ba
       -0.0013113972 -0.0014672378 0.0013044234 -0.00055249775
000050 7b 95 00 bb 97 f7 aa ba 47 8f 48 3a 4f 95 00 3b
       -0.0019620347 -0.0013043758 0.00076507445 0.0019620245
000060 34 44 6a 3a c0 a3 23 3b 68 9b 30 ba 51 e2 ab 3a
       0.00089365547 0.0024969429 -0.00067370245 0.0013113712
000070 19 55 02 3a df 8e 48 ba 7c e2 ab ba 45 57 02 3a
       0.0004971787 -0.0007650684 -0.0013113762 0.00049721106
000080 cc 58 02 ba 4d 46 6a ba 20 e6 0e 3b d3 8c f1 39
       -0.0004972338 -0.0008936867 0.0021804646 0.00046072024
000090 23 97 30 3a 2b 49 6a 3a 61 a3 23 3b 61 15 ea 3a
       0.00067363883 0.00089372945 0.0024969208 0.0017859155
0000a0 44 f6 aa ba 5b 24 81 3a 2b 44 6a 3a 4c a5 f6 b8
       -0.0013043364 0.0009852754 0.00089365494 -0.00011760983
0000b0 4d c0 29 3b fb c3 fb 37 bb d6 10 ba 59 44 6a ba
       0.0025901974 3.0012792e-05 -0.00055251614 -0.0008936576
0000c0 eb bd 39 3a 9c e4 ab 3a 1a 93 48 3a c3 8d 48 ba
       0.000708549 0.0013114396 0.00076513144 -0.00076505187
0000d0 b6 e6 0e 3b 93 10 2b 3a ce e6 0e bb 45 96 00 bb
       0.0021804995 0.0006525602 -0.002180505 -0.0019620818
0000e0 7c a9 f6 b8 0b c2 6e 3a 33 47 6a ba 81 97 30 ba
       -0.00011761763 0.0009107894 -0.0008937001 -0.0006736443
0000f0 d5 34 69 39 96 48 6a 3a bd 98 30 ba ca e3 ab 3a
       0.00022240293 0.0008937208 -0.0006736627 0.0013114151

fc3.weight f4 [64, 64]
000000 52 39 a5 3a 10 44 6a ba e8 05 3a ba 08 34 4e 3b
       0.0012605584 -0.00089365337 -0.0007096217 0.0031464119
000010 e4 cd c2 39 92 47 6a ba e2 e4 0e bb ac 95 00 bb
       0.00037155964 -0.00089370564 -0.0021803905 -0.0019620461
000020 f4 cd c2 b9 47 e6 6e b9 b2 be 39 ba 65 c5 95 3a
       -0.0003715601 -0.00022783234 -0.0007085606 0.0011426626
000030 5b 9f 1f 3a 43 d4 10 ba c3 45 6a 3a 9e ce c2 b9
       0.00060891145 -0.00055247935 0.0008936787 -0.00037156505
000040 6f 8f 48 ba 69 f8 aa ba bf 8d 48 3a 87 98 30 3a
       -0.0007650768 -0.0013044003 0.00076505163 0.00067365955
000050 ee 6a 88 3a 21 9b 30 ba d4 77 8d 3b 83 7a b4 3a
       0.0010407844 -0.0006736983 0.004317263 0.0013769421
000060 e0 a2 23 3b 92 f7 aa ba 94 b2 21 bb 04 a5 f6 b8
       0.0024968907 -0.0013043752 -0.0024673091 -0.00011760931
000070 f4 d5 10 ba c2 34 4e bb 61 e6 0e 3b 31 1c 13 3a
       -0.00055250456 -0.0031464552 0.0021804797 0.0005611806
000080 1a 11 5c 38 27 f8 aa ba 17 97 30 ba d7 95 00 bb
       5.2468014e-05 -0.0013043926 -0.00067363813 -0.0019620562
000090 22 97 30 ba 38 b2 21 bb 22 44 6a 3a c9 10 a0 39
       -0.0006736388 -0.0024672877 0.0008936544 0.00030530084
0000a0 a0 46 6a 3a 12 47 6a ba f5 a0 23 3b 1e b3 21 3b
       0.00089369155 -0.0008936982 0.0024967764 0.0024673413
0000b0 8e 97 00 bb d6 54 5a 3b e0 be aa 39 82 d9 04 bb
       -0.0019621584 0.0033314726 0.0003256714 -0.0020271246
0000c0 d0 10 a0 39 5e 38 94 b9 ae 42 ad ba 04 24 81 ba
       0.00030530104 -0.00028270757 -0.0013218725 -0.0009852652
0000d0 83 e6 0e 3b 77 a1 1f 3a be d4 10 3a 7f da 04 bb
       0.0021804876 0.0006089429 0.0005524865 -0.0020271835
0000e0 60 e1 d9 39 16 e4 ab ba 96 10 2b ba 03 f6 aa ba
       0.00041557383 -0.001311424 -0.0006525604 -0.0013043288
0000f0 68 e3 ab 3a 28 a7 97 ba a9 95 00 3b 3d f5 d6 3a
       0.0013114037 -0.0011570202 0.0019620454 0.0016399991
000100 99 07 2b ba a2 32 05 3b 9f 44 6a 3a ae a1 23 3b
       -0.00065242645 0.002032437 0.0008936617 0.0024968195
000110 4a 39 a5 ba 67 44 6a ba 03 b1 d4 ba 0e e2 ab 3a
       -0.0012605574 -0.00089365843 -0.001622707 0.0013113634
000120 f7 e5 0e 3b eb 96 30 3a c6 1c 1b ba 0a 97 30 3a
       0.002180455 0.0006736356 -0.00059170683 0.0006736374
000130 d3 00 f0 b9 1c c0 29 bb 41 0c 5c 38 92 10 2b 3a
       -0.0004577698 -0.002590186 5.24635e-05 0.00065256015
000140 eb 96 30 3a 69 f5 aa 3a 26 ec aa 3a b9 e9 1f 3a
       0.0006736356 0.0013043109 0.0013040348 0.0006100196
000150 e0 8c f1 39 6a 95 00 3b 65 37 a5 ba 19 73 6f 39
       0.00046072062 0.0019620308 -0.001260501 0.00022835693
000160 bb a6 95 ba 28 89 8d 3a 0d f5 aa 3a 5f a0 8d 3a
       -0.0011417487 0.0010798322 0.0013043002 0.0010805241
000170 1c 76 8d bb 85 d6 7c 3a fe f5 aa 3a 47 76 8d bb
       -0.0043170583 0.0009645003 0.0013043282 -0.0043170783
000180 16 bc 23 bb 96 a3 23 bb 6d ab 2b 3a ad 95 30 3a
       -0.0024983934 -0.002496933 0.0006548677 0.00067361706
000190 30 e4 ab ba 12 97 30 ba 8e 82 a9 3a 4b 8f 48 ba
       -0.001311427 -0.00067363784 0.0012932585 -0.0007650747
0001a0 ca 55 31 ba a4 f3 d6 3a a2 5f 9e b9 08 97 30 3a
       -0.0006764798 0.0016399515 -0.0003020736 0.00067363726
0001b0 dd 10 a0 b9 80 f3 aa 3a 17 e2 ab 3a 33 53 5a bb
       -0.00030530142 0.0013042539 0.0013113645 -0.003331375
0001c0 a3 48 39 ba 09 aa 4b ba d6 c4 95 3a 32 94 00 bb
       -0.00070680137 -0.00077691727 0.001142646 -0.0019619581
0001d0 9e 44 6a 3a 17 e6 6e 39 7f bb 02 3a 90 b2 c2 36
       0.00089366164 0.00022783164 0.00049870455 5.802438e-06
0001e0 37 e6 0e 3b 22 50 a9 38 b9 1d 13 ba 2b 46 6a 3a
       0.00218047 8.073474e-05 -0.0005612034 0.00089368474
0001f0 70 e3 0e 3b 7e f0 27 3b 8c cd c2 b9 2b 98 30 ba
       0.0021803044 0.0025625522 -0.00037155708 -0.0006736542
000200 a0 b9 95 3a bc 4b 4a ba 84 04 9e ba 14 44 6a ba
       0.0011423118 -0.0007716974 -0.0012055789 -0.0008936536
000210 f8 a1 23 bb b2 56 02 3a 32 cc a7 ba 48 e2 ab 3a
       -0.0024968367 0.0004972025 -0.0012801944 0.0013113702
000220 79 44 6a ba c7 8c f1 b9 1b 43 6a 3a b2 e2 ab 3a
       -0.0008936595 -0.0004607199 0.0008936391 0.0013113825
000230 63 33 27 bb 43 96 00 bb 39 44 6a 3a 81 98 30 ba
       -0.0025512807 -0.0019620813 0.00089365576 -0.0006736592
000240 c4 8d 48 ba 03 89 48 3a 2f b0 95 ba 8c 10 2b 3a
       -0.0007650519 0.0007649811 -0.0011420305 0.0006525598
000250 14 50 a9 b8 30 45 6a ba dd 1b 13 3a b3 97 30 ba
       -8.073464e-05 -0.00089367013 0.0005611757 -0.0006736472
000260 e5 b6 ef 3a d1 5f 00 3b b8 36 a5 ba 1d 98 30 ba
       0.001828876 0.001958836 -0.0012604808 -0.0006736534
000270 26 e3 ab 3a 3c dc c8 b9 76 e3 0e 3b 38 23 1e bb
       0.001311396 -0.0003831106 0.0021803058 -0.0024129879
000280 c9 8c f1 39 df 8c f1 b9 c3 e2 1f 3b 9e e2 ab 3a
       0.00046071995 -0.0004607206 0.0024396635 0.0013113802
000290 f3 96 30 3a fb bf 2a ba 18 09 2d ba 98 a1 af ba
       0.00067363604 -0.00065135927 -0.00066007813 -0.0013399599
0002a0 57 50 c0 3a 9e 9a 1f 3a 95 12 92 3a 22 97 30 3a
       0.0014672381 0.00060884084 0.0011144454 0.0006736388
0002b0 f4 9a 30 3a 33 17 13 ba 8e 65 c6 ba df 8c f1 39
       0.0006736957 -0.0005611062 -0.0015136467 0.0004607206
0002c0 26 ef 9f b9 86 56 ea ba 6a e6 0e bb 8e 93 30 ba
       -0.00030505023 -0.0017878569 -0.0021804818 -0.00067358545
0002d0 8f f7 aa ba 23 44 6a 3a cb e1 1f 3b 02 50 a9 38
       -0.0013043749 0.0008936545 0.0024396058 8.0734506e-05
0002e0 b8 8f 48 ba 7e 1d 13 ba 0a 97 30 3a 18 f8 aa 3a
       -0.00076508103 -0.00056119997 0.0006736374 0.0013043908
0002f0 d6 8d 30 ba 1d 0a 0e 39 98 44 6a ba 7a e3 ab ba
       -0.00067350024 0.00013545943 -0.0008936613 -0.0013114058
000300 15 44 6a ba ce e5 0e 3b 59 47 6a 3a bb f1 a5 3a
       -0.00089365366 0.0021804455 0.0008937023 0.0012660542
000310 6c e4 aa ba 52 96 30 3a f6 b7 17 39 29 59 5b 3a
       -0.0013038046 0.00067362667 0.00014469013 0.0008367473
000320 d7 97 30 3a 2b 96 00 3b 7c 95 00 3b 02 f6 aa ba
       0.0006736493 0.0019620757 0.001962035 -0.0013043287
000330 95 2d 6c b9 f1 4f a9 38 df 93 00 bb cf 29 a0 b9
       -0.00022523694 8.073438e-05 -0.0019619388 -0.00030548728
000340 e3 8c f1 39 39 93 00 bb e1 43 6a 3a 23 97 30 ba
       0.0004607207 -0.0019619002 0.00089365063 -0.00067363883
000350 50 50 c0 ba 14 44 6a 3a d0 50 5a bb d3 62 88 3a
       -0.0014672372 0.0008936536 -0.0033312328 0.0010405428
000360 bf c5 6e b9 9f db ab ba 4f d9 a8 b8 52 39 a5 ba
       -0.00022771115 -0.0013111717 -8.051341e-05 -0.0012605584
000370 01 97 30 ba 7d e4 1f 3b 9f e6 0e bb 53 c5 c2 b6
       -0.00067363685 0.0024397664 -0.0021804941 -5.804622e-06
000380 53 e2 0e bb 44 02 c2 38 81 e3 ab 3a 8a 91 00 bb
       -0.002180238 9.251063e-05 0.0013114066 -0.0019617998
000390 ed 10 a0 39 8d 57 c2 b9 23 8b ec 37 4e 50 c0 3a
       0.0003053019 -0.00037067794 2.8198183e-05 0.001467237
0003a0 b5 f5 aa 3a 0e d7 04 3b 98 b0 87 39 4f 91 00 3b
       0.0013043197 0.0020269784 0.0002588078 0.001961786
0003b0 23 43 6a ba d9 8f 48 3a f6 67 43 3a 5f 9a 30 ba
       -0.0008936396 0.00076508295 0.0007454151 -0.000673687
0003c0 e8 75 8d bb b1 35 94 b9 fe f5 aa ba 0f 13 ea 3a
       -0.004317034 -0.00028268763 -0.0013043282 0.0017858463
0003d0 12 96 00 3b 5f a0 8d 3a 26 e6 0e bb 1f 8f 48 3a
       0.00196207 0.0010805241 -0.002180466 0.0007650721
0003e0 43 20 b9 3a a1 8d 48 3a 99 a6 f6 b8 6b 65 b9 3a
       0.0014123995 0.0007650499 -0.00011761225 0.0014144605
0003f0 28 3b 6a 3a e6 98 b2 39 5f 0f 2b 3a a8 d6 6e b9
       0.00089352066 0.00034064724 0.0006525423 -0.00022777414

fc3.bias f4 [64]
000000 f1 95 00 3b 0d 91 48 3a 69 69 b9 ba d4 57 02 3a
       0.0019620622 0.0007651009 -0.0014145795 0.0004972194
000010 18 f8 aa ba 57 99 30 3a 9a e3 ab ba 34 f5 d6 ba
       -0.0013043908 0.00067367166 -0.0013114095 -0.001639998
000020 6f c5 95 ba 9e f7 aa ba 67 f7 aa 3a d0 44 6a 3a
       -0.0011426638 -0.0013043766 0.0013043702 0.00089366455
000030 98 95 00 3b 57 44 6a ba 03 97 30 3a 23 b1 ed b9
       0.0019620415 -0.0008936575 0.00067363697 -0.0004533614
000040 13 f7 aa 3a 4e 44 6a ba 0a e6 6e 39 8e 55 31 ba
       0.0013043605 -0.000893657 0.00022783145 -0.0006764763
000050 7a b6 ef 3a e4 a4 f6 b8 36 e1 6e b9 d7 8d 48 3a
       0.0018288635 -0.000117609074 -0.00022781346 0.00076505303
000060 ad e5 1f 3b e5 f7 aa ba 95 10 a7 b8 64 0b cf ba
       0.0024398372 -0.0013043849 -7.966269e-05 -0.0015796241
000070 a5 e3 ab 3a e9 57 02 3a 17 9b 30 ba a2 a3 af ba
       0.0013114108 0.0004972206 -0.00067369774 -0.0013400207
000080 19 99 30 3a 74 a1 1f 3a 66 c5 95 ba a1 90 48 3a
       0.00067366805 0.0006089427 -0.0011426627 0.0007650946
000090 d7 47 6a 3a 09 96 00 bb e3 8c f1 39 79 f6 aa 3a
       0.00089370966 -0.0019620678 0.0004607207 0.0013043425
0000a0 d1 41 8c 3a 6c e2 ab 3a 1e 96 00 3b 0b 8d 48 ba
       0.0010700767 0.0013113744 0.0019620727 -0.00076504116
0000b0 ef 96 30 ba 2e 45 6a ba 84 50 a9 b8 8d 46 6a ba
       -0.0006736358 -0.00089367 -8.073545e-05 -0.00089369045
0000c0 67 9a 30 3a 22 44 6a 3a 40 21 e3 b7 44 ad 2b ba
       0.0006736875 0.0008936544 -2.7075992e-05 -0.0006548951
0000d0 3a 47 6a ba 91 ea 0e bb 50 98 30 ba 20 be 23 bb
       -0.0008937005 -0.0021807293 -0.00067365635 -0.002498515
0000e0 25 69 b9 3a 33 d6 10 3a 6f 9b 8d ba ee e5 0e bb
       0.0014145715 0.0005525082 -0.0010803769 -0.002180453
0000f0 e6 10 a0 39 73 95 00 3b 6f 4a 03 3a b8 98 30 3a
       0.00030530168 0.0019620329 0.0005008345 0.0006736624

fc4.weight f4 [1, 64]
000000 ee a0 64 ba d1 6c 24 3a eb 1a 1f 39 99 e8 60 38
       -0.000872149 0.00062723184 0.0001517345 5.3622385e-05
000010 11 21 6a ba 21 5e 00 3b 59 38 9a ba 77 78 f0 38
       -0.0008931319 0.0019587355 -0.001176606 0.0001146653
000020 29 0a ea 3a 91 e0 72 3a 41 f1 2a 3a e1 02 05 3a
       0.0017855811 0.00092650304 0.0006520935 0.00050739764
000030 d2 50 24 ba 0b 13 f4 b8 1d 24 30 3a c2 51 22 b8
       -0.00062681467 -0.00011638374 0.00067192485 -3.8699953e-05
000040 36 3e 30 ba 5f 2e 5a 38 d8 da 81 b7 8e 52 46 ba
       -0.00067231373 5.2018437e-05 -1.5479905e-05 -0.0007565402
000050 3f 3b 48 ba 4f 04 7a b8 6c ef 9a b7 e5 68 1e 3b
       -0.0007638223 -5.9608657e-05 -1.846972e-05 0.0024171409
000060 2e 60 83 39 74 70 f1 b9 8c 32 f2 b9 c4 e8 ff b9
       0.00025057927 -0.00046050886 -0.00046195497 -0.00048810814
000070 9e ba e4 b8 c0 28 2e ba 10 ff 97 39 20 b2 2b 39
       -0.000109066474 -0.00066436455 0.00028991 0.00016374188
000080 16 42 c5 39 5e 1f 5a 3b 84 fd 42 b9 16 a4 45 ba
       0.00037624006 0.0033282856 -0.00018595724 -0.00075394043
000090 a1 5a 07 3a 14 b2 19 3b 72 ef 50 39 79 6e 30 3a
       0.0005163346 0.002345209 0.00019925626 0.0006730329
0000a0 ea 52 aa 3a 27 b9 17 3b a8 a9 b6 39 2e 23 22 b9
       0.0012994681 0.002315113 0.0003484015 -0.0001546263
0000b0 77 0a 29 3a 85 3d 8d 3a a2 9e 1f 3a e0 40 3a ba
       0.0006448398 0.001077578 0.0006089007 -0.0007105004
0000c0 51 a0 82 b8 95 4a 2a ba 84 cd 39 b8 e3 2c a5 3a
       -6.228744e-05 -0.0006496099 -4.429884e-05 0.0012601878
0000d0 9e d4 4b bb b4 93 0b bf 3e 8d 0c bb 80 35 a9 3a
       -0.0031102072 -0.5452225 -0.0021446492 0.0012909621
0000e0 9f 46 2a 3a 84 c8 8d bd ce c2 f9 be bb be 35 3a
       0.0006495509 -0.06923011 -0.48781437 0.0006933023
0000f0 3c 47 6a 3a 6e 45 aa ba 65 72 95 3a 4a 2c 3f 38
       0.00089370064 -0.0012990662 0.001140189 4.5579196e-05
