Data Processing/model_weights.pth (torch, 54216 bytes, 7 tensors)

fc1.weight f4 [64, 67]
00000000: a2ee 4e3e 0163 033e 1b8d 4f3e 32f4 103e
00000010: ab6d c03d c27a 373e 1bc6 ce3d f81b 8b3d
00000020: bca0 073e e000 803e c733 da3d ee89 a4bb
00000030: 004b acbc ad7c 013e 388a 293e 13f6 bcbd
00000040: e815 64be 63e8 3b3d 5efa c93d 119c de3b
00000050: f0da 51bd 32b5 e73d 490f 313e dd49 2a3e
00000060: a229 243d 172e 3f3d bfda a03e 15ab ac3d
00000070: f20d dc3d f1a0 dd3d 6fd9 233d f620 573d
00000080: 97ce 9cbb b843 553e 5aa4 ab3b 43f2 d43c
00000090: 887d e9b6 a712 16ba 0856 7f3b 18d4 7e3d
000000a0: 1c85 043e 81eb 3d3e 6461 8eb5 5ae7 3eb8
000000b0: 05c2 6fba 23a6 2337 18bf 3c3c 1624 743a
000000c0: c753 2cbb e6a1 623e f84b 89ba 2a48 d0bb
000000d0: 3353 ad3a 1f05 4e3d 809d f7ba 9018 103e
000000e0: b7f0 4b3e a6cd b23b e257 003e c664 c13d
000000f0: 01cc 303e 063e c53d e1e7 e9b6 af8e 5b3e
00000100: 8f95 013a e99e 7e3e 811f ceb6 9203 b6bd
00000110: 99ee a2bd f81c cf3e 935c c53e a261 a03e
00000120: d4d9 933e 461a 913e 71d5 833e 3e17 393d
00000130: 0400 04be e179 89bd 8d23 efbd 81df 2abd
00000140: d5c7 ecbd df54 38be 035e 70be d323 d3bd
00000150: 97a8 b9bd cb19 a9bd ee2a c9bc db0f 0e3d
00000160: 5c54 0dbe 65af bf3c 7e2c e3bd e8f7 0a30
00000170: 0afb 0b3c c016 1bbe 2938 6d3b 586a 163c
00000180: 08d7 553d 03ae 07be ff30 09be 5e9c db3c
00000190: 42b4 c0bd f1bd 5418 5167 af17 2989 de98
000001a0: a233 b025 c2f6 0a17 7df4 a22d 44d9 04be
000001b0: 3354 ea3c 21be 0717 2fe9 2797 0fc5 2e15
000001c0: 1a6d e516 e3df 3619 4798 7096 13f5 a917
000001d0: 35a3 073d 907c ca97 6b26 ee17 265c 1696
000001e0: 9998 25a4 b2d0 5317 220e aa3d d809 17bd
000001f0: 9f52 0698 d3e6 e5bc 6199 9017 5588 0dbe
00000200: 032a 2cbd 6fd3 8918 78b8 013d a8ef 9935
00000210: e5fb 75be 6cc0 6516 edbb 453e 192f 98bd
00000220: 8c56 063e d4bb 6e3d c621 0b3e 0a9b 10bd
00000230: c0b8 ba3c 16b6 063e 2712 7fbd ed6e da3d
00000240: 7edb cebc e74f 0b3d 4445 683d 532f b93c
00000250: 59dc 01bc 99b0 b0bc 6871 813e 4f91 183e
00000260: aa72 3dbd 56d3 473e 6a16 9cbd 48e0 b33d
00000270: 8ea8 033d a3c8 0d3d 60c6 1c3e 43e1 8c3d
00000280: 66d4 603d 0a1b f23c d88d 943e 361f e93d
00000290: e7d6 e33c 78b9 9d3d 56c7 193e 8d34 cb3c
000002a0: 0d53 35bb b0b8 933c 4d4a 9c37 3321 dd3a
000002b0: 97b9 4b3d e72c dfbc 414b 703d 5951 883d
000002c0: 7a75 ab35 46f0 1e3c 66d0 713d 2099 9d36
000002d0: 9cfd 09bd 1623 70bb 7bfb d2bb 3cae 44bd
000002e0: 7a5e 4f3b fe27 ef3d 6aaa bc3d bd89 d73b
000002f0: ee82 a73d f041 52bd 1157 08bd bf01 7db9
00000300: dc1a 813d 31f2 963c 60c3 fcbb 3b47 203e
00000310: 2b5c 9c37 24d8 e93d d520 63ba 27f8 cfbc
00000320: 8587 fa36 b1d8 9ebd d9db 963d bfc8 853d
00000330: 2ded fdbd 9ec0 4ebd 6f93 3ebb ad3c 2fbd
00000340: 52e4 e2bd af35 5a3d 5e28 883d 0fbc 11bc
00000350: ad6e 08be 4584 a93d ebca 38bc ad21 8fbd
00000360: 87c1 c73c 3626 20bd 36c5 9d3b c87f e6bd
00000370: 0f8e b0ba 9dc1 b0bd 5e92 dabd 77e4 613d
00000380: 9158 8c3a 187a a2bd 4664 703d bfb1 c7bd
00000390: a330 0dbd 9153 573d 8c68 9c3b b629 8a3d
000003a0: 6f72 883d 8090 05bd cc78 933c 2e7b 6039
000003b0: a009 a0bc 02b4 3516 6909 e2bc d17a 8c3c
000003c0: 7724 8b3d 6f86 a33d ae8d aebd 818d bc95
000003d0: 4d46 d63c 2f35 00bd aff6 0e17 d7c6 fd3c
000003e0: 4e3d a83c ee24 95bd e202 2a3d f2d1 6ebb
000003f0: 9b07 41bc c6de 17bd 9762 76bb c2c1 78bd
0.20208219 0.12830736 0.20268671 0.14155653 0.093959175 0.17917922 0.10096379 0.06792444
0.13244909 0.25000668 0.10654407 -0.0050213253 -0.021031857 0.12645216 0.16556633 -0.092266224
-0.22273982 0.045875918 0.09862207 0.006793507 -0.051234186 0.11313857 0.17290987 0.16629739
0.040078767 0.046674814 0.3141689 0.08431069 0.10744847 0.10821713 0.040002283 0.05252167
-0.0047853696 0.20826614 0.005238098 0.025994426 -6.958555e-06 -0.00057248253 0.003896119 0.062213987
0.12941402 0.18546869 -1.0608169e-06 -4.5514993e-05 -0.00091460376 9.754239e-06 0.01152017 0.00093132386
-0.0026295052 0.22132072 -0.0010474911 -0.006356259 0.0013223648 0.050297853 -0.0018891543 0.1407187
0.19916044 0.005456644 0.12533525 0.09443049 0.17265321 0.09630971 -6.9709354e-06 0.21441148
0.00049432454 0.24865307 -6.142946e-06 -0.088874 -0.07955665 0.4045179 0.3854719 0.31324488
0.28877127 0.28340358 0.2574878 0.04518818 -0.12890631 -0.067127 -0.11676703 -0.041717056
-0.115615524 -0.18001126 -0.23473363 -0.10309567 -0.09065359 -0.08256873 -0.024556603 0.03468309
-0.13801712 0.023399064 -0.110924706 5.0556404e-10 0.008543739 -0.15145397 0.0036196804 0.009180628
0.052207023 -0.13249974 -0.13397597 0.02680796 -0.094093814 2.7496254e-24 1.1335191e-24 -5.752415e-24
3.056612e-16 4.4901657e-25 1.8525842e-11 -0.12973505 0.028604602 4.386083e-25 -5.425493e-25 3.5294472e-26
3.7065798e-25 9.454393e-24 -1.9435096e-25 1.0983234e-24 0.03311463 -1.3085388e-24 1.5390088e-24 -1.214598e-25
-3.5907927e-17 6.844119e-25 0.08303477 -0.036874622 -1.7360807e-24 -0.028064167 9.3445e-25 -0.13821538
-0.042032253 3.5627163e-24 0.031670064 1.1469137e-06 -0.24021871 1.855919e-25 0.19309969 -0.07430858
0.13118953 0.058284596 0.13587102 -0.035304107 0.022793174 0.13155398 -0.06227317 0.10665689
-0.025251146 0.034011748 0.05670668 0.022605574 -0.00792607 -0.021568583 0.25281835 0.14899181
-0.04625193 0.19514212 -0.07621463 0.08783013 0.03214317 0.03461517 0.15310049 0.06878903
0.05489006 0.029553909 0.29014468 0.11382906 0.027812434 0.07701391 0.15017447 0.024805332
-0.002766791 0.018032402 1.8631248e-05 0.0016870856 0.04973754 -0.02724309 0.058665518 0.06656141
1.2774683e-06 0.00970084 0.059036635 4.6967907e-06 -0.033689126 -0.0036642007 -0.00643867 -0.048017725
0.0031642006 0.1167755 0.092121914 0.006577699 0.0817927 -0.051332414 -0.033286158 -0.0002412861
0.06303951 0.018426033 -0.00771372 0.15652172 1.8639568e-05 0.11418179 -0.0008664255 -0.025386883
7.466357e-06 -0.07756174 0.07366151 0.0653243 -0.12398753 -0.050476663 -0.0029079576 -0.042782474
-0.11078705 0.053273853 0.066483244 -0.008894934 -0.1332347 0.082771815 -0.011278848 -0.06988845
0.024384273 -0.03909894 0.004814769 -0.11254841 -0.0013470071 -0.08630679 -0.106724486 0.05514952
0.0010707547 -0.07933444 0.05868938 -0.09750699 -0.03447021 0.05256993 0.004773205 0.06746237
0.066624515 -0.03260851 0.018001936 0.00021408193 -0.01953584 1.4677864e-25 -0.027592378 0.017148407
0.067940645 0.079846255 -0.08523117 -7.615585e-26 0.026156569 -0.03130072 4.6194033e-25 0.030978603
0.020537045 -0.072824344 0.041506656 -0.0036441055 -0.011781598 -0.037077688 -0.0037595385 -0.060731657

fc1.bias f4 [64]
00000000: 8e34 063e c94a 0bbd 4e51 a53d 6740 0ebe
00000010: 2791 a93d 4682 7bbc 8648 06be dd9a c43c
00000020: 3bc4 2fbd cac4 c43b b477 bc3d 370e 87ba
00000030: b1e1 82bd 5235 fa3c 79e8 a73c fb39 9e3c
00000040: f05f 973d 086b 96bd 65cc 09be d06d b7bd
00000050: 733f 30be 0731 e2bd ca8b d3bd a767 20be
00000060: b65f 4bbd 8b75 c8bb a52f bebc bc2a 5abd
00000070: e848 2bbd e0f6 b9bc 2207 d8bd f769 0dbe
00000080: d6d4 c2bc 99af 10be 92af 9fbc c37b a63d
00000090: ac2e 3cbe 4fa2 51bb e56e 8fbd c9f4 e3bd
000000a0: 2e3f 1ebe e010 0f3d d529 f7bc f276 25be
000000b0: 7c04 853c ca38 dc3d 0fc5 5fbc 0c05 7bbb
000000c0: 4a3e 47bd 7499 7dbd 85ee a4bc 85d7 96bd
000000d0: becc 28be 69f3 da3c 5740 8cbd fddd c3bc
000000e0: 0c4c 7dbc 7fb7 debd d952 e73d 84ca 07be
000000f0: aebf 2abe 5257 6cbd 07b4 03be 9ca6 33be
0.13105986 -0.034006868 0.08072148 -0.13891755 0.08279639 -0.015350884 -0.13113603 0.023999626
-0.04291175 0.0060049044 0.09202519 -0.0010303919 -0.063907035 0.030543003 0.020496594 0.019314757
0.073913455 -0.07344633 -0.13456877 -0.08956492 -0.17211704 -0.110445075 -0.10329397 -0.1566454
-0.049651824 -0.006117528 -0.023216078 -0.05326341 -0.041817576 -0.022700727 -0.105482355 -0.13809954
-0.023783129 -0.14129485 -0.019492898 0.081290744 -0.18377179 -0.0031987613 -0.07003573 -0.111306734
-0.15453789 0.034928203 -0.030171314 -0.16158655 0.01623749 0.10753019 -0.013657822 -0.0038302569
-0.048643388 -0.061913922 -0.020133266 -0.07365326 -0.16484353 0.026727395 -0.06848209 -0.023909563
-0.0154600255 -0.10874843 0.11295099 -0.13260847 -0.16674682 -0.057700463 -0.12861644 -0.17544025

fc2.weight f4 [64, 64]
00000000: 24e1 fe3c aadd bcbd 90df de3b 5bda 19be
00000010: 5bba d73c 4b34 4317 596f 243a c406 bebc
00000020: d4e7 8c3b 80cf 9ebd 9764 a8bd 20cc 8f3c
00000030: f1a3 fbbb 0b2f 49bd f1cd c6bc fca0 43bd
00000040: f4cf 503d bc52 843c aef6 bdbb ef72 81bc
00000050: 184d 073c 5f6f 2fbe a839 5abc d4a2 fdbd
00000060: c8bc 873b 86fb bebd eb5a 48bc 0dc3 c93d
00000070: 106e 28be d705 04bd f315 0d3c 1b4b 58bd
00000080: dfde 28bc b6e1 8097 b549 20be f42b b3bc
00000090: d55d b9bd b4c1 1bbe 275b 4dba a9a6 1dbe
000000a0: 3898 2cbe 559d 02be 782d 94bc 7c05 6e3d
000000b0: fae1 c53c 0a18 383d f514 e03b 7f77 bebd
000000c0: 2fc8 10bc 1ebc 7dbc 254b eb38 082e cbbb
000000d0: 6e39 283c 6036 1fbd 6d42 17be a3a3 e497
000000e0: 6779 a13a 7e47 15be 8b86 9abc 4dde 0c3e
000000f0: aea9 63bd 8342 583c e3ed 7c3d 2971 dd3c
00000100: e5c2 3fbe 4029 2ebd 62bc 03be aef1 28be
00000110: af35 d9bc 2d34 1fbd 5943 d5bd aa4c ac97
00000120: 2ac8 453d 6e22 aebd 1830 dd16 cbdd a8bd
00000130: c6c3 13bd 8555 a018 3eb2 10be 33cb 55bd
00000140: 9964 2d3d 66ba 1718 6200 e1bc f251 f83b
00000150: e8cb c4bd 2023 b6bd ab77 0417 f9bf b0bd
00000160: b972 843d 53f2 f796 d155 10be 6e78 fdbd
00000170: e65d 31be a458 7e97 3f1c 7dbd a35b db3b
00000180: ae52 d2bd 4170 b03a 0912 1fbe d7fb 66bd
00000190: 47fe b03d 85c7 053e 7b62 1abd 6386 14be
000001a0: 7b6f 2f3c 5931 9fbd dd5a 283e ffa5 febd
000001b0: ed0a e3bc d476 b897 66a5 8a3d 74e8 32bd
000001c0: 0438 2abe 3b62 1996 79d4 0117 60de 0098
000001d0: e36b 19be 4b64 1217 82f8 ebbd db38 d615
000001e0: 5205 5396 b73a 00be 1335 a73c 5424 523d
000001f0: cafb 58be b4b6 dbbd 665e b03b dfdc 5dbd
00000200: 6e06 ec3b 4729 16b8 8ea4 213d a6c1 cbbd
00000210: 97aa feb9 33ca 0598 18f0 b197 d7f2 6396
00000220: 505b 1bbd f061 a4bb 5b56 e316 5c7d 0dbc
00000230: af94 ec17 f64e 10be 366e 1fbe 67dc 16be
00000240: 1f1e 00be e78d ef3c 4515 613d d531 2198
00000250: 5707 03be b331 38bd f852 3cbe d670 8ebd
00000260: f8af 463d 1dbb b73c 3777 983c 50f6 0697
00000270: 72cc 1fbe 8616 82bc dceb f8bd 4d06 c1bd
00000280: 68a9 13bd de6c 1497 fd02 abba 8c80 11be
00000290: f01f fdbd ef44 c63c 27ca 49bc d129 97bd
000002a0: 32e0 3cbe f385 26be 7300 2118 a70d 88bd
000002b0: cb43 2cbe b6b1 66bd 675a 7f15 37b7 2cbd
000002c0: 9d8a f597 9ff0 99bc 3e07 94bd fc7d 07bd
000002d0: bf6e 4f3d 3cae 643d 7e6a 463c 59f0 bf97
000002e0: a3a0 cf97 1334 6abd 1100 54be 0e89 3a17
000002f0: 1bfb a6bb d08b 9cbc e5ef 17be e9b0 c0bd
00000300: 7dd6 28bd b338 cebc 8104 29be 8da5 31bd
00000310: 72c4 05bd 28e6 3a17 65b4 743c cd12 19bb
00000320: aedb dbbd ed85 6f3c 8c28 803d 9bcb 9fbd
00000330: c3c6 08be 08c1 f3bd f559 9dbd aabb cdbd
00000340: 4ccc 1abe 632d 12bc aed0 ffbd 07f7 1dbe
00000350: 67fc 24be 98f4 a3bc 083b 81bb bb32 083d
00000360: 22d8 f8bd ad63 e6bd 90a8 27bc ed1d 83bd
00000370: 0c44 dfbc e3ad 023d 27cc 35be a513 77bc
00000380: 0bde 0abe a349 b5bc 439f 94bd e11f 833d
00000390: 9b3a 8c3b aebd 89bd a618 81bd 2d7c 65bd
000003a0: cf0b 183d 311b 943d 591e 28bd 5eb6 f4bc
000003b0: 0d6b e53c c56d 4cbb 57ed 1f3d 6699 92bb
000003c0: 808c aebd c571 9ebc 9b8f 80bd 3d4a 053e
000003d0: fdb5 ee3a fc9e 00be 0d84 cebd 03b5 7e97
000003e0: f63e 5530 5046 c2bc ac67 813d e78b 6dbb
000003f0: fe4b bebc e173 21be 6cbf 383d ebb4 623d
0.031113215 -0.092219666 0.006801553 -0.15024702 0.026333978 6.30739e-25 0.00062726956 -0.023196585
0.004300097 -0.07754421 -0.08222311 0.01755339 -0.0076794554 -0.04911713 -0.024268122 -0.04776095
0.05097957 0.016152732 -0.005797229 -0.015801875 0.008258127 -0.17132328 -0.01331941 -0.123845726
0.0041423775 -0.09325318 -0.012228708 0.09851656 -0.16448236 -0.03223213 0.00861119 -0.052806
-0.010307043 -8.328784e-25 -0.15653117 -0.021871544 -0.090511 -0.1521061 -0.0007833712 -0.15395607
-0.16854942 -0.1275533 -0.018088087 0.0581107 0.024155606 0.0449448 0.006838436 -0.09300136
-0.00883679 -0.015486745 0.0001121967 -0.0062005557 0.010267599 -0.038870215 -0.14771433 -1.4775462e-24
0.0012319506 -0.14578053 -0.018862983 0.13756676 -0.05558174 0.013199451 0.061750304 0.027031498
-0.1872669 -0.042519808 -0.12864831 -0.16498443 -0.026514856 -0.038868118 -0.10413236 -1.1134592e-24
0.048286594 -0.08502661 3.5734827e-25 -0.08245429 -0.036075376 4.1445383e-24 -0.14130494 -0.05219574
0.042332266 1.96104e-24 -0.027466003 0.007578128 -0.096092045 -0.08893418 4.2802543e-25 -0.08630366
0.06467194 -4.005793e-25 -0.14095236 -0.12376486 -0.17320976 -8.2183707e-25 -0.061794516 0.0066942736
-0.10269676 0.0013461189 -0.15534224 -0.056392517 0.086422496 0.13064392 -0.037691575 -0.1450439
0.010707731 -0.07773084 0.16440912 -0.12434005 -0.02771517 -1.1920718e-24 0.067698285 -0.043678716
-0.16622931 -1.2390238e-25 4.1950326e-25 -1.6655883e-24 -0.14982562 4.730173e-25 -0.115220085 8.6523614e-26
-1.7046123e-25 -0.12522398 0.02041105 0.051304176 -0.211898 -0.10728207 0.005382347 -0.054165717
0.007202915 -3.580123e-05 0.039463572 -0.09949045 -0.00048573755 -1.7291932e-24 -1.1498965e-24 -1.8413541e-25
-0.03792888 -0.005016558 3.6728326e-25 -0.008635845 1.5288676e-24 -0.14092621 -0.15569386 -0.14732514
-0.1251149 0.029242469 0.054951925 -2.0833921e-24 -0.12795769 -0.044969272 -0.18391025 -0.069551155
0.04850766 0.02242809 0.018611534 -4.3608625e-25 -0.15605333 -0.01587988 -0.121543616 -0.0942503
-0.03605023 -4.795879e-25 -0.0013047155 -0.14209193 -0.12359607 0.024202792 -0.012316263 -0.07381023
-0.18444899 -0.16262035 2.080899e-24 -0.06643229 -0.16822736 -0.056321822 5.1568155e-26 -0.042166915
-1.5867745e-24 -0.018791495 -0.07227944 -0.033079132 0.050642725 0.055830225 0.012110351 -1.2403758e-24
-1.3417612e-24 -0.057178568 -0.2070315 6.027283e-25 -0.005095852 -0.019109637 -0.14837606 -0.09408743
-0.041220177 -0.02517352 -0.16505624 -0.043370772 -0.032658048 6.039034e-25 0.0149355875 -0.0023357153
-0.1073526 0.014619333 0.06257734 -0.078025065 -0.13357072 -0.11902052 -0.076831736 -0.1004556
-0.15116996 -0.008921954 -0.12490974 -0.15426265 -0.16111909 -0.020014092 -0.0039438047 0.033251505
-0.12150599 -0.112494804 -0.0102330595 -0.06402192 -0.027254127 0.031904113 -0.17753659 -0.015080367
-0.13561265 -0.02212984 -0.07256939 0.06402565 0.0042794473 -0.06725632 -0.063035294 -0.056026626
0.037120637 0.07231749 -0.041044567 -0.029872116 0.028005147 -0.0031193357 0.039044704 -0.004473853
-0.08522892 -0.019341359 -0.062773906 0.13016601 0.0018212196 -0.12560648 -0.100837804 -8.2300295e-25
7.757842e-10 -0.023715168 0.06318602 -0.0036246718 -0.023229595 -0.1576686 0.04510443 0.055348318

fc2.bias f4 [64]
00000000: e3e0 e0bd c5c4 beb9 685e aa3a 2b4b 97bd
00000010: 1173 03bc 86ba 823d 89e1 10be 3e1a 16bd
00000020: 4b24 6718 ab2a 8d3c 37c2 68bc 9da5 2fbc
00000030: ac00 8f3d 8e8c 8a3d eb98 3dbd 75ee 16b7
00000040: 2aef 393d b342 38bd b58d 6cbe 0ff9 0fbe
00000050: a6f6 cfbd b23f a2bd a67c b1ba 90d1 a9bc
00000060: 237b 3a3d ffed 703c 53df 673d 966f 0dbe
00000070: 4259 18be 304b 0bbd c21d 26be 8dce e4ba
00000080: 4faf 573d 3e43 10be 5fe7 66bd 6dd1 bbbd
00000090: 013f c1bd b1f9 54bd 924e 393d dab8 8abc
000000a0: 68f7 0b3d dd66 983b cc06 c496 0d9b 41be
000000b0: f312 93bd 319f 93bc 007c 1cbe 3468 afbc
000000c0: 6e6d 29bc e058 4b3d e522 d8bc 5e31 3d3d
000000d0: 2f83 a9bb 55b7 513c 0b0b 17be c7b1 91bd
000000e0: 2e6b 33bc 7368 e4bc e112 093c cd8a 423c
000000f0: ee82 8bbd 6ec5 be3b 4fb0 fa3d 0034 a1bd
-0.10980394 -0.0003638623 0.0012998106 -0.07387384 -0.008023039 0.06383233 -0.14148535 -0.03664612
2.9874374e-24 0.01723226 -0.014206461 -0.010720638 0.0698255 0.0676509 -0.046288412 -8.996217e-06
0.0453941 -0.044985484 -0.23100932 -0.14059852 -0.10154466 -0.07922305 -0.0013541176 -0.02072981
0.04552759 0.01470518 0.056609463 -0.13812098 -0.14877799 -0.03400725 -0.16222289 -0.0017456576
0.05265742 -0.14088151 -0.056372996 -0.09170804 -0.09435845 -0.051995937 0.045240946 -0.016933847
0.03417149 0.004650934 -3.1669797e-25 -0.18906803 -0.07181349 -0.018020244 -0.15281677 -0.021411993
-0.0103410315 0.049645305 -0.026383827 0.04618966 -0.005173109 0.012800057 -0.14750306 -0.071139865
-0.010950847 -0.027881837 0.0083663175 0.011873913 -0.06812082 0.0058218753 0.122406594 -0.07871246

fc3.weight f4 [64, 64]
00000000: e9a3 54bb 9ab4 31be e833 163d cd5d b1bd
00000010: 7c36 1ebe b7aa a73d 760c a53b fb8e 2abd
00000020: cf24 a617 8963 5a3d 10ed 0cbd c2f1 873c
00000030: 2521 3c3e f736 383c 85b7 003e 70ab bcbd
00000040: 8a45 39bd 3c3b 0ebd 8deb a4bd b5c7 1ebd
00000050: c6e1 5fbc e5b1 47bd 2c19 45bd 1e5b 023d
00000060: 84e4 22be 3462 38be dadb 4abd 8494 a83c
00000070: 6c71 08be 70a9 643d de51 b0bd 8c34 1b3d
00000080: c479 923c ac1f 20be 2a6b b23d 5677 37bb
00000090: a8bc fc3c 4137 97bc 18c4 e5bd 0a5b 443d
000000a0: c0fd c6bd 73a5 a3bd c807 c817 becd 1b3d
000000b0: 704f fd3d fb53 bdbc 4790 88bd e475 3e3d
000000c0: 66c4 fc3c 97cb 9f3d 8b3d 13bd f00f 08bd
000000d0: 5c60 0ebe bbf9 763d 067c 6e3d cf2e 0f3e
000000e0: 98d3 95bd cb86 2ebe a407 10be 8ef0 043d
000000f0: 9f00 bdbd b106 1ebd f4e8 c73d 4a70 0cbe
00000100: 72b1 ddba f9f7 e616 1379 573d e935 e0bd
00000110: d2fc c3bd 605f 86bd 05c8 28be d643 19bb
00000120: 3002 9a96 2a3e 01bd 6939 693d 4ff3 d4bc
00000130: e492 673d 1822 1ebd 7bc4 85bc c795 bebd
00000140: 0ff2 b4bd 4797 83bd 741e e797 7c3d 16be
00000150: 3b68 5bbd 1e6f 183c eb86 1e16 b0fb ecbd
00000160: 74c0 8fbb c9eb 20be 73bb 2ebd 52de 0fbe
00000170: 7f6e c5bd 1f03 7fbd 7843 6dbd 32f4 8b3d
00000180: 2005 0e96 f494 d0bd 92b3 09bd 88a9 713c
00000190: f42f 00bc 2d02 08be 56d6 24be 8b35 fbbd
000001a0: 3625 dcbd f48e a4bd 6039 8816 99fc f3ba
000001b0: dc91 1fbe 0c47 28be 4efe 41be a4f7 6bbc
000001c0: e66c 4a37 10c2 5ebc eb40 a7bd 6942 aebd
000001d0: d7ef 92bd 983a 84bd 07e6 98bd 9c31 d1b9
000001e0: 0974 df3c 0c6f f0bc 4cdb d6bd f004 0ebe
000001f0: 7f2c d7bd f045 23be cd05 29be 2097 1ebb
00000200: 2b61 1d3d 352d 3dbe ae3a fdbd 4028 29be
00000210: ab35 55bb ca2e 4bbd ab47 05bc ea5d 55bd
00000220: b46b 223d c4ec 2b3d f653 8bbc 6932 c33d
00000230: c29e 2e3e 745a a1bd 0104 f0bc c25e c3bc
00000240: 135e 1fbe 1125 153d 920d bf3d c487 a43d
00000250: 796d 93bb e99e f83c d279 243e 9e4f bb3d
00000260: fd2b c7bd 8c84 0fbd 2433 3f3d ec48 633d
00000270: 2903 e2bd 8f38 7a3d 690b b1bd 6f14 813d
00000280: 9d57 473d c014 be3c 829d 863d 2d37 953d
00000290: d0cb 98bd b3c0 433d ea75 833d ec9b 0f3e
000002a0: 6805 6fbd 97b0 64bd 00ac 263d 8b0f f53d
000002b0: 7bd8 1bbb 3964 833d 309c 613d 30fd d1bd
000002c0: 8713 f73d e6a4 893d 194f 793d 038f f83d
000002d0: 2ce5 a2bc fed7 6bbd 50ca 1fbe 4b1f ffbd
000002e0: 0352 cdbd b463 2dbd 8003 37be d628 45be
000002f0: 45d4 9f3d f814 4dbd 791f fa3b a32e 503d
00000300: 5cc1 a7bd 515c eb17 1582 7697 767b 25be
00000310: c3d2 4e3c 6fc9 66bd 29c1 4697 142d 8abd
00000320: f683 1997 59b7 c1bd 68a9 6ebd d30e 243c
00000330: 4126 3997 dfe8 12bd 1e52 c7bd 0ce9 8716
00000340: 8e58 ac97 7f66 b0bd 8a47 58bd 01ef b1bd
00000350: 48b4 0dbe f432 92bd 0015 5817 3def 48bd
00000360: 4fb2 c8bd 7d9e f516 b43d 93bd 69f8 c0bd
00000370: b9c2 bc16 e37f e63d 8ff5 5dbd ca22 1abb
00000380: 27b7 1516 988f 43bd 7d99 613d a606 b2bd
00000390: 7848 38bd 9242 e6bd e2cf 81bd fc54 29bd
000003a0: e69b 73bd 891a 25bd 00bb 5a95 9c1c c7bd
000003b0: f28d 75bc a5d0 d6bd 7bfe 38be dbfa 9516
000003c0: ecd6 a496 0214 10be a8c1 a2bd bef1 253c
000003d0: fa35 e6bd 56d9 0fbe 0f36 403d f506 aa17
000003e0: 61cb 92bd 1936 ddbc 25b4 c1bc c7b2 5abd
000003f0: 6023 0cbe c672 4bbd 12d2 f3bd a132 e3bd
-0.003244633 -0.1735405 0.036670595 -0.08660469 -0.15450472 0.08186858 0.005036886 -0.041640263
1.073679e-24 0.05331758 -0.034405768 0.016594771 0.18372019 0.011243573 0.12570007 -0.092123866
-0.045232333 -0.03472446 -0.0805274 -0.038764674 -0.013664668 -0.048753638 -0.04811971 0.031825177
-0.15907484 -0.18006212 -0.049526073 0.02057863 -0.13324517 0.05582565 -0.08609365 0.03789191
0.017880328 -0.15637082 0.08711846 -0.0027994714 0.030851677 -0.018458964 -0.112190425 0.047938384
-0.09716368 -0.07990541 1.2926661e-24 0.038038008 0.12368667 -0.023111334 -0.06668144 0.046499148
0.030855369 0.078025036 -0.035947364 -0.033218324 -0.13903946 0.060296755 0.058223747 0.139827
-0.07315749 -0.17043607 -0.14065415 0.032455973 -0.09228634 -0.0385806 0.09761229 -0.1371471
-0.0016913845 3.7314997e-25 0.0526057 -0.109477825 -0.09569706 -0.0656116 -0.16482551 -0.002338638
-2.4881422e-25 -0.031553425 0.056939516 -0.025994925 0.05653657 -0.038606733 -0.01632904 -0.093059115
-0.088352315 -0.06425338 -1.4935713e-24 -0.14671892 -0.0535662 0.009303836 1.2805711e-25 -0.11571443
-0.004386956 -0.15714945 -0.042659234 -0.14049652 -0.09640216 -0.062258836 -0.05792567 0.06833686
-1.1472286e-25 -0.101846606 -0.033618517 0.014749892 -0.007823933 -0.1328208 -0.16097388 -0.12266072
-0.10749285 -0.08035079 2.2008194e-25 -0.0018614709 -0.15582985 -0.16433352 -0.18944666 -0.014402304
1.2065493e-05 -0.013596073 -0.08166679 -0.085087605 -0.07174652 -0.06456488 -0.07465749 -0.00039900548
0.02727701 -0.029349826 -0.10491046 -0.13869071 -0.10506534 -0.15944648 -0.16506119 -0.0024198964
0.038422745 -0.18474276 -0.12364708 -0.1651926 -0.003253321 -0.04960517 -0.008134763 -0.052091517
0.039653495 0.041973844 -0.01700781 0.09531099 0.17052749 -0.07878581 -0.029298784 -0.023848895
-0.1556323 0.036412302 0.0932876 0.08033708 -0.004499134 0.030349212 0.16062096 0.09146045
-0.09725187 -0.035038516 0.04667963 0.055489466 -0.11035759 0.061089095 -0.086447544 0.063027255
0.04866754 0.023203254 0.06573011 0.072859146 -0.07460749 0.047791194 0.06418975 0.14024323
-0.058354765 -0.05583247 0.040691376 0.11965855 -0.0023780155 0.064156 0.055080593 -0.1025337
0.120642714 0.06720905 0.06086645 0.12136652 -0.019884668 -0.057579033 -0.1560452 -0.124571405
-0.10025408 -0.042331412 -0.17872429 -0.19253859 0.07804159 -0.050068825 0.0076331464 0.050825726
-0.08191177 1.5209823e-24 -7.9651074e-25 -0.16160378 0.012623492 -0.056344446 -6.4221053e-25 -0.06746879
-4.9603524e-25 -0.09458799 -0.058267027 0.0100133 -5.9825007e-25 -0.035866614 -0.097324595 2.19575e-25
-1.1137594e-24 -0.086132996 -0.0528026 -0.086881645 -0.13838303 -0.07138625 6.981987e-25 -0.04905628
-0.09799635 3.9681905e-25 -0.07189503 -0.094223805 3.0495925e-25 0.11254861 -0.05418926 -0.002351927
1.2093917e-25 -0.047744364 0.05507802 -0.08692674 -0.044990987 -0.11243166 -0.063384786 -0.041340813
-0.05947485 -0.04030851 -4.4172266e-26 -0.09722254 -0.014987456 -0.104890145 -0.18065827 2.423056e-25
-2.6631264e-25 -0.14070132 -0.07947093 0.010128437 -0.11240764 -0.14047751 0.046926554 1.0987749e-24
-0.07167698 -0.027003335 -0.02364547 -0.05339315 -0.1368537 -0.049670003 -0.11905302 -0.11093641

fc3.bias f4 [64]
00000000: d2b2 223d 2cbb 02be 6fd8 f13d 01f7 04be
00000010: cdc8 ea3d 55a3 27be f452 d5bd 139b 5dbc
00000020: 7930 26be ba0f 4c3c 4cf1 a5bd 7dc2 f1bb
00000030: 9b26 923d d55e 24be baec 0f3e 9f56 923d
00000040: 24c7 883f f94b a93d 135a 883d 1603 273d
00000050: 67d9 95bc 8469 78ba 59d0 8abd 19e5 00be
00000060: 3e5f 61bc 8811 b0ba 6f14 a23d 38ba ba3c
00000070: c197 053e ebb4 bebd 0c5f 05bd 8e3d b0bd
00000080: ada4 e0bd c48d 1ebd 0867 0a3e 607c 9cbd
00000090: ffad 3ebd 114a 1cbb b19c 2bbb 02d8 14bd
000000a0: 5e24 e9bf a453 4bbd e5a4 e33c 7024 dabd
000000b0: 3aeb 13be 4fbb fdbd 8bbf 143d e89f dc3b
000000c0: a7be f33b c8c9 3fbe 80d2 a73d cf34 2b3d
000000d0: 62f5 00be c17d 0dbe a4b1 af3c 327e a23d
000000e0: 9020 853d 55a1 01be 4b61 23be bcb7 d6ba
000000f0: dcb8 80bd 8fbf 07bd d67e e7bd a8cc e9bc
0.039721318 -0.12766713 0.118088596 -0.1298485 0.11464081 -0.163709 -0.10416213 -0.013525742
-0.16229428 0.012454921 -0.08102664 -0.007377921 0.0713627 -0.160518 0.14055148 0.07145428
1.0685773 0.08266444 0.06657805 0.040774427 -0.018292142 -0.0009476172 -0.067780204 -0.12587394
-0.013755618 -0.0013432959 0.07914054 0.022793874 0.13046171 -0.09311851 -0.032561347 -0.086054906
-0.109689094 -0.038709417 0.13515866 -0.0764091 -0.046552654 -0.0023847858 -0.0026185925 -0.036338814
-1.8214223 -0.049640313 0.027788589 -0.10651481 -0.144452 -0.12389242 0.036315482 0.0067329295
0.007438499 -0.18729317 0.081944466 0.04179841 -0.12593606 -0.13817503 0.02144701 0.07934226
0.065003514 -0.126592 -0.15955083 -0.0016381661 -0.06285259 -0.03314167 -0.11303489 -0.02853997

fc4.weight f4 [1, 64]
00000000: 8858 53bc 4e3e c3bc 9363 aabb 6189 793d
00000010: 174b 84bd 2273 b2bd 8a04 36bd 8153 a9bd
00000020: ca1b 8f3b 6057 f73c 2970 173d 255e 723d
00000030: 9b0c 5b3d 9235 8e3d 612f 96bd e94f 273c
00000040: db5c 193d 5e77 c7bd 8d41 6cbd 4e84 75bd
00000050: c772 c23c 8609 1fbb f7ea fbbd 5c83 b8bd
00000060: f8ee f23c 8dd4 d7bd 37f4 f3bc 6e2d 843d
00000070: 73c6 cfbb 08b4 49bd 8c1b 39bd 05e8 673c
00000080: 01cc f23c b3a4 9fbd 929d 993c e7f4 73bc
00000090: 7594 f63d 2b8b d03c 1eec d2bc 6c00 013d
000000a0: b47b 44bd 2a35 943c ad8e 92bd edbc 2dbd
000000b0: 4d6e 43bd fa8e abbc 356d 513d 0c01 253d
000000c0: d7f7 bfbd b187 8339 0e8f 05be 233a 96bc
000000d0: aa47 f33b 6777 943d 98fe 193c 77b2 dabd
000000e0: 4ffc 983d 6583 48bb 1a33 51bd 1568 4d3d
000000f0: b07a 03bc 1a98 54bd f407 263d dd44 12bc
-0.012899525 -0.02383342 -0.0051998585 0.06092203 -0.06459635 -0.08713366 -0.044437923 -0.0826788
0.0043673264 0.03019303 0.0369722 0.059171814 0.05347882 0.069438115 -0.073332556 0.010211923
0.03744207 -0.09739564 -0.0576797 -0.05994063 0.02373637 -0.002426715 -0.12300675 -0.0900943
0.029654965 -0.10538588 -0.029779537 0.064539775 -0.0063407957 -0.049243957 -0.045192286 0.014154439
0.029638292 -0.07795086 0.018751893 -0.014889932 0.12040035 0.025456985 -0.025747355 0.031494543
-0.047969535 0.018091757 -0.071561195 -0.0424165 -0.047712613 -0.0209422 0.05112954 0.0402842
-0.093734436 0.00025087365 -0.13042852 -0.018338269 0.0074243145 0.07249337 0.009399079 -0.10678571
0.07469999 -0.0030595895 -0.051074125 0.05014809 -0.008024856 -0.051902868 0.04053493 -0.008927551
